checkpoints/lstm_model_100e_92acc.pt (torch, 82503 bytes, 18 tensors)

lstm_1.weight_ih_l0 f4 [64, 30]
0	0x3e42c853	0.1902173
1	0x3e4aa7a5	0.19790514
2	0xbd834eb2	-0.06411494
3	0x3e5dfd5f	0.21678685
4	0xbd9d2f55	-0.076750435
5	0x3ca643c7	0.02029599
6	0xbe3c81ab	-0.1840884
7	0x3d92e99d	0.071734644
8	0x3e1c9223	0.15290122
9	0xbe843be2	-0.25826937
10	0x3e48f363	0.19624095
11	0x3c69d197	0.0142711615
12	0x3e2a0b8e	0.1660597
13	0xbd90bc34	-0.07067147
14	0x3e013a61	0.12619926
15	0xbd9e75f2	-0.0773734
16	0x3e43a7dc	0.19107002
17	0xbb2d3bd2	-0.002643336
18	0xbdf241fb	-0.11828991
19	0x3d5f8c61	0.054577235
20	0xbdf09429	-0.11747009
21	0xbccedddc	-0.025252275
22	0xbded0274	-0.115727335
23	0x3df35d20	0.118829966
24	0xbe5d9033	-0.21637039
25	0xbdf5a999	-0.11995239
26	0xbdba3b1a	-0.09093304
27	0xbe1d1357	-0.15339409
28	0xbca76c48	-0.020437375
29	0xbe6e5d07	-0.23277675
30	0x3de80625	0.11329297
31	0xbe7cd161	-0.24689247
32	0x3e0f08fb	0.1396827
33	0xbc306ec8	-0.0107686
34	0xbdb93c98	-0.090447605
35	0x3dff5f69	0.1246937
36	0x3d011499	0.031513784
37	0x3e40fa1b	0.18845408
38	0x3c32bbfa	0.010909075
39	0xbdb120ce	-0.08648835
40	0x3d68d232	0.056841083
41	0xbd1de09d	-0.038544286
42	0x3db3a6be	0.08772038
43	0x3e51822f	0.20459817
44	0x3e0c81d2	0.13721398
45	0xbe1f2556	-0.15541586
46	0x3e1c4af0	0.15262961
47	0xbbae6bc4	-0.0053229053
48	0x3dc58ae7	0.09645634
49	0xbe2fee90	-0.17180848
50	0xbe691782	-0.22762874
51	0xbde6097f	-0.1123228
52	0xbe29f1c0	-0.16596127
53	0x3e495856	0.19662604
54	0x3dc0a9fb	0.09407421
55	0x3df67959	0.12034864
56	0x3dcfeab3	0.10152187
57	0xbc5ecf29	-0.0135991955
58	0x3e4f2580	0.20229149
59	0xbe331d55	-0.17491658
60	0x3d01c3c7	0.03168085
61	0xbe0fc439	-0.14039697
62	0x3de8955f	0.11356615
63	0xbd28b983	-0.041192543
64	0x3d79e152	0.061005898
65	0x3ca252db	0.0198149
66	0x3e855e40	0.2604847
67	0xbd66c7c3	-0.05634285
68	0xbe00d3bf	-0.12580775
69	0xbdb37783	-0.087630294
70	0x3e6b23b5	0.2296284
71	0x3dba6dee	0.09102999
72	0x3e63688b	0.22207849
73	0xbe215b67	-0.15757523
74	0xbe72a405	-0.23695381
75	0xbdd216ba	-0.10258241
76	0xbe3b473d	-0.18288894
77	0x3e37b1ab	0.17938869
78	0x3df2f17a	0.11862464
79	0x3e80e3c5	0.25173774
80	0xbe0ea693	-0.1393073
81	0xbe03f6a8	-0.1288706
82	0x3e193f0b	0.14965455
83	0xbdeb7054	-0.11496034
84	0x3dce98dc	0.10087749
85	0xbd4b66f4	-0.04965873
86	0x3e3359c8	0.17514718
87	0xbe56eebb	-0.20989506
88	0xbe2b1307	-0.16706477
89	0x3e0027b6	0.12515149
90	0x3d9b0a84	0.07570365
91	0x3c9380f1	0.01800582
92	0x3e5b6c7d	0.21428104
93	0x3e52560a	0.20540634
94	0xbe00ed78	-0.12590587
95	0xbdbf4400	-0.09339142
96	0x3e8034bf	0.25040242
97	0xbdb1c591	-0.08680261
98	0xbda17a3e	-0.07884644
99	0xbe41f3fa	-0.18940726
100	0xbddb8992	-0.10719599
101	0x3d785072	0.060623594
102	0xbd055d5e	-0.032559745
103	0xbdb72fa9	-0.08944637
104	0x3d4aabd9	0.049480293
105	0xbe4157ac	-0.188811
106	0xbe2a800e	-0.16650411
107	0xbe1b8fce	-0.15191576
108	0xbe2d314a	-0.16913334
109	0xbe0dc155	-0.13843282
110	0x3e876a1b	0.2644814
111	0x3d7fd611	0.06246001
112	0x3dc02364	0.0938175
113	0xbe80e545	-0.2517492
114	0xbe0d8f5d	-0.1382422
115	0xbd0ba6f0	-0.03409475
116	0x3dbe1ede	0.09283231
117	0xbe3b77db	-0.1830744
118	0xbdcb03fb	-0.099128686
119	0xbde1c863	-0.11024549
120	0x3d29590b	0.041344684
121	0xbd60f85b	-0.05492435
122	0xbba1b6f6	-0.0049351407
123	0xbdffd4ff	-0.12491798
124	0xbdc80ad1	-0.09767688
125	0xbe055207	-0.13019572
126	0xbe29b26e	-0.16571972
127	0xbe455759	-0.19271602
128	0x3e85cfe2	0.26135164
129	0xbb9df010	-0.0048198774
130	0x3e2e228f	0.1700537
131	0x3e290009	0.1650392
132	0xbe24468d	-0.16042538
133	0x3e4461a6	0.19177875
134	0xbd295071	-0.04133648
135	0xbddb1d8f	-0.10698997
136	0xbe245d54	-0.16051227
137	0xbe8f8e9a	-0.28038484
138	0x3d9f4df7	0.077785425
139	0xbd74491d	-0.05964004
140	0x3db98fd5	0.09060637
141	0xbe56e0da	-0.20984212
142	0x3e6ee5f1	0.23329903
143	0xbe4a9194	-0.19782096
144	0xbd843ba0	-0.06456685
145	0x3d626e06	0.055280708
146	0x3e196875	0.14981253
147	0x3e4f1bbb	0.20225422
148	0x3e30969a	0.1724495
149	0xbe231269	-0.15924992
150	0x3d9f1ad3	0.07768788
151	0xbd9acefe	-0.07559012
152	0x3d84424d	0.06457958
153	0xbe16c0d9	-0.14722003
154	0x3e8b5ae8	0.27217793
155	0xbdc11290	-0.09427369
156	0x3e6827f6	0.22671494
157	0x3d9d16c7	0.0767036
158	0x3e0c93f1	0.1372831
159	0xbd9fe13d	-0.07806633
160	0x3e7fc70c	0.24978274
161	0xbcd519b7	-0.026013238
162	0x3d8a110d	0.067415334
163	0xbe44dea8	-0.19225562
164	0x3e263b68	0.16233599
165	0xbcb3e7b1	-0.021961065
166	0xbd40af96	-0.04704245
167	0x3e8010c2	0.25012785
168	0x3d7011df	0.058610793
169	0xbda9b78f	-0.08286964
170	0xbd39aaa3	-0.045328747
171	0x3da88bb4	0.08229771
172	0x3e4f4adf	0.20243405
173	0x3cb1980a	0.021678943
174	0xbdd6accb	-0.104821764
175	0x3c8d72de	0.017266687
176	0xbdaba5f2	-0.08381261
177	0x3e1c524e	0.15265772
178	0x3ea23238	0.3167894
179	0xbe21c445	-0.15797527
180	0x3e3a0206	0.18164834
181	0x3da53228	0.08066207
182	0x3d3446d2	0.044012852
183	0xbdee3f0f	-0.11633121
184	0x3e2e97a3	0.17050032
185	0x3dca5fbd	0.09881542
186	0x3dcd47db	0.10023471
187	0xbd3b7ff6	-0.04577633
188	0xbdc7fc77	-0.09764951
189	0x3c37c401	0.011216165
190	0x3c308887	0.010774738
191	0xbd44356e	-0.047902517
192	0x3e47ca93	0.1951087
193	0x3e767749	0.24068941
194	0x3b13e9e7	0.0022569837
195	0xbd007fa1	-0.031371716
196	0x3d3852ae	0.045000724
197	0x3c22a2d5	0.0099265175
198	0x3db7434e	0.08948384
199	0x3dc41cd2	0.095758095
200	0xbe3231a0	-0.17401743
201	0xbd73aabb	-0.059488993
202	0x3e5501ca	0.20801464
203	0x3df76736	0.12080233
204	0x3caf1eb1	0.02137694
205	0xbd3dbddb	-0.04632364
206	0xbdef68e9	-0.11689932
207	0xbe241fef	-0.16027807
208	0xbc470d65	-0.01214919
209	0x3e4faf08	0.20281613
210	0x3e415a26	0.18882045
211	0x3d8cc9fc	0.06874463
212	0xbe42d816	-0.19027743
213	0xbe22f431	-0.15913464
214	0xbc998bc1	-0.018743398
215	0x3e3e351a	0.18574944
216	0x3db1db84	0.086844474
217	0xbd2ab7a3	-0.041679036
218	0x3da108a3	0.078629754
219	0xbdfe1b67	-0.1240757
220	0xbc426a2d	-0.011866135
221	0x3e79b1c2	0.24384215
222	0xbd680bb5	-0.05665179
223	0xbd643fec	-0.055725023
224	0xbe4d3522	-0.200398
225	0x3e1ffb70	0.1562326
226	0x3e4ff0c6	0.20306692
227	0x3d8f9575	0.070109285
228	0xbe0b2ed3	-0.13592081
229	0xbe8f83b7	-0.28030178
230	0xbe382cea	-0.17985883
231	0x3e1086e3	0.14113955
232	0x3e21ed42	0.15813163
233	0x3e1d7aef	0.15378927
234	0x3e170d1f	0.14751099
235	0x3c94fe23	0.018187588
236	0x3cacabf4	0.021078087
237	0xbe74de78	-0.2391299
238	0xbe3ec1a9	-0.18628563
239	0xbe7bed3b	-0.24602215
240	0x3e04508f	0.12921356
241	0xbdafbc14	-0.08580795
242	0xbbe7f503	-0.007078768
243	0xbdd0bf85	-0.101927795
244	0xbd351487	-0.04420903
245	0xbe0663be	-0.13123986
246	0xbe05d60e	-0.13069937
247	0x3d845823	0.06462123
248	0xbd76429d	-0.06012212
249	0x3e09cbfe	0.13456723
250	0xbdbf5768	-0.09342843
251	0xbe454cf3	-0.19267635
252	0xbd8f8be8	-0.07009107
253	0xbe3635b7	-0.17793928
254	0xbd2bd302	-0.04194928
255	0xbe5b24e9	-0.21400799

lstm_1.weight_hh_l0 f4 [64, 16]
0	0xbe7c1e46	-0.24620923
1	0xbd5172fb	-0.051135045
2	0xbdbe5260	-0.092930555
3	0xbdcf7543	-0.10129788
4	0x3e049b19	0.1294979
5	0x3e0e383f	0.13888644
6	0x3df24d4e	0.11831151
7	0xbd9aea2e	-0.075641975
8	0x3d807dd7	0.06274002
9	0x3e689eec	0.22716874
10	0xbe8b151c	-0.27164543
11	0xbdf553ec	-0.119788975
12	0xbe37646c	-0.17909402
13	0x3e1401c4	0.14453799
14	0xbd7bfb0e	-0.06151872
15	0xbe65cefa	-0.22442237
16	0x3e32a5e5	0.17446096
17	0xbe232f96	-0.15936121
18	0x3e9e1c74	0.30881083
19	0x3c5c4376	0.013443818
20	0x3e14c08d	0.14526577
21	0xbcf0fe2c	-0.029418074
22	0xbcd31602	-0.02576733
23	0x3d1b6791	0.037940565
24	0x3dc8a461	0.09796978
25	0xbd1dac04	-0.038494125
26	0xbe8e1b21	-0.27755073
27	0xbe3b78d5	-0.18307813
28	0x3dee63f0	0.11640155
29	0xbe11e1ee	-0.14246342
30	0xbdedbf51	-0.11608756
31	0xbdd70652	-0.104992524
32	0xbe489e4d	-0.19591637
33	0x3d37d580	0.044881344
34	0xbe472a22	-0.19449666
35	0x3d336c04	0.043804184
36	0xbe9a282b	-0.3010877
37	0x3dd08824	0.10182217
38	0x3e0aa82e	0.13540718
39	0x3d3e53e4	0.046466723
40	0xbc80b9b0	-0.015713543
41	0x3cc05cbd	0.023481721
42	0xbe19ea74	-0.15030843
43	0xbe094f5f	-0.13409184
44	0xbe0d9a70	-0.13828444
45	0xbda86cbd	-0.08223865
46	0xbd370d8b	-0.04469065
47	0x3e148a51	0.14505889
48	0xbc1843d2	-0.009293513
49	0x3d965623	0.07340648
50	0x3dffe379	0.12494559
51	0x3d41597f	0.04720449
52	0xbe09955a	-0.1343588
53	0xbe69a219	-0.22815742
54	0xbd998df7	-0.07497781
55	0x3d83b225	0.06430463
56	0xbe7bf267	-0.24604188
57	0xbd8a4d15	-0.067529835
58	0x3de4bc4c	0.11168727
59	0x3e838d0f	0.25693557
60	0x3e1a4e73	0.15068989
61	0x3db9404f	0.09045469
62	0x3e120856	0.14260992
63	0x3de6041d	0.11231253
64	0x3d8b5a20	0.06804299
65	0xbd86fc67	-0.06591111
66	0xbe242b17	-0.16032062
67	0xbdb8afdb	-0.09017917
68	0xbd13c815	-0.036079485
69	0x3d3eca9c	0.046579942
70	0xbb1b7927	-0.0023723335
71	0x3e0330e0	0.12811613
72	0x3de4c375	0.11170093
73	0xbd7f1d26	-0.062283657
74	0xbe7cc36a	-0.2468392
75	0xbe4d19f6	-0.20029435
76	0xbe2179b2	-0.1576908
77	0x3dbbe436	0.09174387
78	0xbe140a8d	-0.1445715
79	0xbd5662de	-0.05234038
80	0xbe10a22f	-0.14124368
81	0xbe118711	-0.1421168
82	0x3e6495eb	0.22322814
83	0xbc7208e6	-0.014772629
84	0xbdcb2f64	-0.099211484
85	0xbe6f3cc2	-0.23363021
86	0x3d11a40a	0.03555683
87	0xbcc89aff	-0.02448797
88	0xbc46c66c	-0.012132268
89	0xbda679dd	-0.08128712
90	0x3dc707d6	0.097182915
91	0x3d8c8f97	0.06863325
92	0xbded7157	-0.115938835
93	0xbe9fbea3	-0.31200132
94	0xbdc66f94	-0.096892506
95	0xbe02dfa0	-0.12780619
96	0x3e70728d	0.23481198
97	0xbe298fb3	-0.16558723
98	0xbdab5f5e	-0.08367799
99	0x3dc237cf	0.09483301
100	0x3da0f6d7	0.07859581
101	0xbb8a4c48	-0.004220519
102	0x3e9a89e7	0.30183336
103	0xbe0aebe4	-0.13566548
104	0x3b3afb6b	0.0028531204
105	0xbb85ab18	-0.004079234
106	0xbe0651c8	-0.13117135
107	0x3b02abd0	0.0019938834
108	0x3d05b87c	0.03264664
109	0xbd0b0818	-0.033943266
110	0x3e11e080	0.14245796
111	0x3e33da39	0.17563714
112	0x3d173759	0.036918018
113	0xbe209d71	-0.15685059
114	0xbe1d90b0	-0.15387225
115	0xbdc69190	-0.096957326
116	0xbd6ef678	-0.05834052
117	0xbe985ae3	-0.2975684
118	0x3a477a45	0.0007609467
119	0x3e582659	0.21108378
120	0x3e4a697c	0.19766802
121	0xbe90b109	-0.28260067
122	0xbdd66730	-0.104689
123	0xbd9f00e0	-0.07763839
124	0xbd312108	-0.04324439
125	0xbd311eea	-0.043242373
126	0xbdaa0ec1	-0.08303595
127	0x3ec97326	0.39345664
128	0x3e56dbfe	0.20982358
129	0x3cdf225a	0.02723806
130	0xbd1c1a54	-0.038111046
131	0x3e178485	0.14796646
132	0x3e2e0d36	0.16997227
133	0xbe65d71a	-0.22445336
134	0xbe3e21a2	-0.18567517
135	0x3dd75370	0.10513961
136	0x3bd96faa	0.006635626
137	0x3d5ede58	0.054411262
138	0xbddfab5a	-0.109213546
139	0xbe624cc0	-0.2209959
140	0xbde172b8	-0.11008209
141	0xbe2d77ae	-0.16940185
142	0x3cc6a840	0.02425015
143	0x3c94a7b5	0.018146375
144	0x3ea7b812	0.32757622
145	0xbda2e85a	-0.07954474
146	0xbbe1002c	-0.0068664756
147	0xbba95f76	-0.0051688505
148	0x3e24c819	0.16091956
149	0xbe3d1edb	-0.18468802
150	0xbe63c825	-0.22244318
151	0x3e7dcbbd	0.24784751
152	0x3d261be6	0.04055395
153	0x3de694a7	0.11258822
154	0x3e29332c	0.16523427
155	0x3de8a00f	0.11358654
156	0x3d5f78e3	0.054558646
157	0x3d2e8043	0.04260279
158	0xbde5766a	-0.11204226
159	0x3eb1fc3f	0.3476276
160	0xbe1ca678	-0.15297878
161	0x3e1c27b9	0.15249528
162	0xbd9d9837	-0.07695048
163	0x3c765bf3	0.015036571
164	0x3d1c12dd	0.038103927
165	0x3e189d3d	0.14903732
166	0xbe6134b5	-0.21992762
167	0xbe00465e	-0.12526843
168	0x3e25b9d5	0.1618417
169	0xbdf9d2c0	-0.121984005
170	0x3df70b71	0.12062729
171	0x3cb71739	0.02234994
172	0xbcf0758a	-0.029352922
173	0x3e0e8a90	0.13920045
174	0xbe2e7f4c	-0.17040747
175	0xbddb47a0	-0.10707021
176	0x3e0e824b	0.1391689
177	0x3d42f27d	0.047594536
178	0x3d8ce9f4	0.068805605
179	0xbe1520c3	-0.14563279
180	0x3e469392	0.19392231
181	0x3cc1780a	0.02361681
182	0xbd58d2c1	-0.052935366
183	0xbe5e5139	-0.21710671
184	0xbd07016e	-0.032960348
185	0x3c888615	0.016665498
186	0x3c8fbc65	0.017545888
187	0x3e719945	0.23593624
188	0x3cddb053	0.027061617
189	0xbd7f0ff4	-0.062271073
190	0x3e059ffe	0.13049313
191	0xbaa1be1a	-0.001233998
192	0xbd5368c9	-0.051613603
193	0x3e0ba1f5	0.13636
194	0x3e2ebb74	0.17063695
195	0x3d5d7a2f	0.0540716
196	0x3dc8b981	0.09801007
197	0x3e1b43eb	0.15162627
198	0x3de32aa0	0.110921144
199	0xbc838a32	-0.016057108
200	0x3da7a78f	0.08186256
201	0x3d674349	0.056460653
202	0x3e5d0bff	0.21586607
203	0x3e28b2bd	0.16474433
204	0x3da724f1	0.08161343
205	0xbdf45d15	-0.119318165
206	0x3e7fff16	0.24999651
207	0xbe6fc8a3	-0.2341638
208	0x3e071db8	0.1319493
209	0x3e51051c	0.20412105
210	0x3dc47cf7	0.09594148
211	0xbe333f37	-0.17504583
212	0xbe4dc1df	-0.20093487
213	0x3e6fb88e	0.23410246
214	0xbdd810f8	-0.105501115
215	0x3d264f98	0.04060325
216	0x3d653445	0.05595805
217	0xbebd9c37	-0.37033245
218	0xbdafe672	-0.08588876
219	0xbe6a1afc	-0.22861856
220	0x3e3ffb69	0.18748249
221	0xbdd7ec1c	-0.10543081
222	0x3e7ed47e	0.24885747
223	0x3caa2e19	0.020773934
224	0x3df267db	0.11836215
225	0x3e06b673	0.13155536
226	0x3d1cd0c1	0.03828502
227	0xbdc700b0	-0.09716928
228	0x3d4aff7d	0.04956006
229	0x3c3b54dc	0.011433806
230	0x3d1e243e	0.038608782
231	0xbe25c0f7	-0.16186891
232	0xbdb66f4b	-0.08907946
233	0xbde771e1	-0.113010176
234	0x3e92965a	0.28630334
235	0x3e265fe0	0.16247511
236	0x3e1c143b	0.15242092
237	0x3cd2f0ef	0.025749652
238	0xbe547a0a	-0.20749679
239	0xbcb4df58	-0.022079155
240	0xbe03ff5e	-0.12890384
241	0xbdfca483	-0.123360656
242	0x3ecf3642	0.40471083
243	0x3de2b01a	0.11068745
244	0x3e8ef1b8	0.27918792
245	0x3d846abf	0.06465673
246	0xbe043df8	-0.12914264
247	0xbe22e45c	-0.15907425
248	0x3dab9592	0.08378138
249	0x3e9489a4	0.2901126
250	0x3ddb0456	0.106941864
251	0xbd4a0744	-0.049323335
252	0xbe099c1c	-0.13438457
253	0xbd9cb6f3	-0.07652082
254	0x3e1a55fe	0.15071866
255	0xbde24452	-0.11048187

lstm_1.bias_ih_l0 f4 [64]
0	0x3df039c6	0.117297694
1	0xbc078c0f	-0.008273139
2	0xbdd5a4fb	-0.10431858
3	0x3e784e5c	0.24248642
4	0x3db8a2e4	0.09015444
5	0x3e9d5c97	0.30734703
6	0x3e5ffdb6	0.21874127
7	0xbd1eacda	-0.038739063
8	0x3e59a229	0.21253265
9	0x3ea285dc	0.31742752
10	0xbdea86a7	-0.11451464
11	0x3e1aae0a	0.15105453
12	0xbe2abf1e	-0.16674468
13	0xbe6a5ae4	-0.22886235
14	0x3dd1a5f7	0.102367334
15	0xbd64dce8	-0.055874735
16	0xbd8880f0	-0.06665218
17	0xbe48d20f	-0.19611381
18	0x3e291429	0.16511597
19	0x3e971d55	0.29514566
20	0xbd4e391d	-0.050347436
21	0xbdcade5d	-0.09905694
22	0xbbe71902	-0.0070525417
23	0xbe19b5e5	-0.15010794
24	0xbe123986	-0.14279756
25	0x3c98e6bb	0.018664708
26	0x3e61552a	0.22005144
27	0xbe167c66	-0.14695892
28	0x3cd8d29e	0.026467618
29	0xbe25e12c	-0.16199178
30	0xbdd89fab	-0.10577329
31	0xbc90aaba	-0.017659534
32	0x3d186782	0.037208088
33	0xbe0cbec2	-0.13744643
34	0x3e8f5e0a	0.28001434
35	0x3e5b4a0e	0.21414968
36	0x3e6af938	0.22946632
37	0xbcac49c8	-0.021031275
38	0x3d7af010	0.061264098
39	0x3e260d91	0.16216113
40	0xbe8be541	-0.27323344
41	0x3e00b8f7	0.12570558
42	0x3e5574c9	0.20845331
43	0xbdcb2a00	-0.0992012
44	0x3d0cd39e	0.0343815
45	0xbe879042	-0.26477247
46	0xbe997c0b	-0.2997745
47	0xbc1f31da	-0.009716475
48	0x3ddc635c	0.10761139
49	0x3c9ee001	0.019393923
50	0x3da30939	0.079607435
51	0xbd8cb05d	-0.06869576
52	0xbe156701	-0.14590074
53	0x3e5f0293	0.21778326
54	0xbe55c38f	-0.20875381
55	0x3d9eb260	0.07748866
56	0x3e600a21	0.21878864
57	0x3e56abcf	0.20963977
58	0x3e37f1c6	0.17963323
59	0xbe06060b	-0.13088243
60	0xbd093df6	-0.033506356
61	0xbd51b584	-0.051198497
62	0xbc45d5ed	-0.01207493
63	0x3e5cd965	0.21567304

lstm_1.bias_hh_l0 f4 [64]
0	0xbe27b424	-0.16377312
1	0xbe4d46ee	-0.20046589
2	0xbe919ce2	-0.28440005
3	0x3e530a6e	0.20609447
4	0xbbfe4a56	-0.0077603264
5	0x3ea2b15e	0.31775945
6	0x3d947570	0.07248962
7	0xbddc8b01	-0.107687004
8	0x3df68463	0.120369695
9	0x3ed6e493	0.41971263
10	0x3e5ed075	0.21759208
11	0x3ddaca6c	0.1068314
12	0xbe65fa87	-0.2245885
13	0xbe6b5634	-0.22982103
14	0x3e87b769	0.26507118
15	0xbe4400de	-0.19140956
16	0x3d6605e7	0.056157973
17	0xbd86215f	-0.06549334
18	0x3de6223f	0.11237001
19	0x3d82aac2	0.06380226
20	0xbe3d6583	-0.18495755
21	0xbcfc8459	-0.030824827
22	0x3e5ea112	0.21741131
23	0x3dc31c9d	0.09526942
24	0x3e3cb2dc	0.18427604
25	0xbcc22c9a	-0.023702908
26	0x3e858966	0.2608139
27	0xbc6a2fee	-0.014293654
28	0xbc9125ac	-0.017718159
29	0x3c8e222f	0.017350284
30	0x3c3c8d5f	0.011508315
31	0xbd73b438	-0.059498042
32	0x3c833450	0.016016155
33	0xbde0efe0	-0.109832525
34	0xbd37c2c7	-0.04486349
35	0x3e4c4ffb	0.19952385
36	0xbe2b937f	-0.16755484
37	0x3d0cdb1e	0.034388654
38	0x3e8864a9	0.26639298
39	0x3d8920d5	0.06695715
40	0xbe30722e	-0.17231056
41	0xbe6bfd81	-0.23045923
42	0x3e53bd50	0.20677686
43	0x3e571daf	0.21007417
44	0x3e8342a9	0.25636795
45	0xbd5b3db1	-0.05352563
46	0x3a84a9d6	0.0010121416
47	0x3e6acfcc	0.2293083
48	0x3dcd2837	0.10017436
49	0xbd419cec	-0.047268793
50	0xbe6f56a3	-0.23372893
51	0x3e6d3db7	0.23168074
52	0x3db5432c	0.08850703
53	0x3e88c5f6	0.26713532
54	0xbdbfdfa0	-0.09368825
55	0x3e14c218	0.14527166
56	0xbd59abbf	-0.053142305
57	0xbd19eaef	-0.037577566
58	0x3e74927f	0.23884009
59	0xbe077da2	-0.13231519
60	0x3df24fcf	0.118316285
61	0x3e1a5920	0.15073061
62	0xbdb582f1	-0.08862866
63	0x3e1b9cce	0.15196535

lstm_2.weight_ih_l0 f4 [128, 16]
0	0x3cb1eb29	0.021718578
1	0xbd9dd293	-0.077061795
2	0xbdb0ae58	-0.086270034
3	0xbda7ed1f	-0.08199524
4	0x3d8deebe	0.06930302
5	0xbbe14e3d	-0.006875782
6	0xbc5e1fe8	-0.013557412
7	0xbdd5ddda	-0.104427055
8	0x3da70435	0.08155099
9	0x3bfb710b	0.007673388
10	0x3d057ee2	0.032591708
11	0xbd7530a9	-0.05986086
12	0xbc05fac7	-0.008177466
13	0x3e0528aa	0.13003793
14	0xbd04c1ac	-0.032411262
15	0x3e60e454	0.219621
16	0x3dcbf928	0.09959632
17	0x3d48ee4c	0.049055383
18	0x3e06c155	0.13159688
19	0xbcddc8da	-0.027073313
20	0x3a80a457	0.0009814602
21	0x3d3f9ef6	0.046782456
22	0x3e0ff232	0.14057234
23	0x3dc8baff	0.09801292
24	0xbd81999e	-0.06328128
25	0x3e69505b	0.2278456
26	0xbde5cfe2	-0.11221291
27	0x3e033506	0.12813196
28	0x3d92e861	0.07173229
29	0x3dbdac6e	0.09261404
30	0xbe71957d	-0.23592182
31	0x3bb1b317	0.0054229605
32	0x3ddc4454	0.1075522
33	0x3da08f01	0.07839776
34	0xbd5d9fac	-0.054107353
35	0x3e577791	0.21041705
36	0x3ce6f857	0.02819459
37	0xbe47b52b	-0.19502704
38	0xbde3757e	-0.11106394
39	0x3d8400de	0.06445478
40	0x3de9cff2	0.114166155
41	0x3e3f1372	0.18659762
42	0xbd51ed8d	-0.051251937
43	0xbcce2195	-0.025162498
44	0xbdef6f1c	-0.11691114
45	0x3e6593d2	0.2241967
46	0xbdbe383c	-0.092880696
47	0xbd9104f1	-0.070810206
48	0x3d778fb7	0.06043979
49	0xbdc0637a	-0.09393974
50	0xbc89d2ef	-0.016824214
51	0x3d565c43	0.05233408
52	0x3e8b73d8	0.2723682
53	0xbe17d8f3	-0.14828853
54	0xbd8f6cef	-0.07003199
55	0xbcc4a984	-0.024006613
56	0x3e00e761	0.12588264
57	0x3e03bbcd	0.12864609
58	0x3de7726d	0.11301122
59	0x3e1c26c0	0.15249157
60	0x3e455cb3	0.19273643
61	0x3d9e1d75	0.07720462
62	0xbdfa4850	-0.12220824
63	0xbc7124fb	-0.0147182895
64	0x3dc29264	0.09500578
65	0xbd6fe469	-0.05856744
66	0xbd9718de	-0.0737779
67	0x3cba33d7	0.022729797
68	0xbe0c2a7f	-0.13688086
69	0xbe17e1d7	-0.14832245
70	0xbe8ea3f4	-0.2785946
71	0xbde89188	-0.11355883
72	0x3dfecb05	0.12441067
73	0x3b9cdc38	0.0047869943
74	0x3e441c0d	0.19151326
75	0xbdef1614	-0.11674133
76	0xbd7383f1	-0.059452
77	0xbe08fb2e	-0.13377067
78	0xbd4e87a8	-0.05042234
79	0x3ddfed51	0.109339364
80	0xbd35ff1f	-0.044432756
81	0x3d548991	0.051889006
82	0xbde4468a	-0.11146267
83	0x3e51695a	0.20450345
84	0x3d188216	0.037233435
85	0x3da78c63	0.081810735
86	0x3e192c1a	0.1495823
87	0xbd61c966	-0.05512371
88	0x3ca8cbbc	0.02060496
89	0x3e2d8279	0.16944303
90	0xbdc99e74	-0.09844676
91	0x3d3bf2b3	0.045885753
92	0xbdd1bc13	-0.102409504
93	0x3e9c7cf4	0.30564082
94	0xbe40598e	-0.18784162
95	0xbc6a7c52	-0.014311867
96	0x3e6d1927	0.23154126
97	0xbdad0d1b	-0.08449765
98	0x3e00263d	0.12514587
99	0x3e819888	0.25311685
100	0x3def6858	0.11689824
101	0xbe593853	-0.21212892
102	0xbccb7e4d	-0.024840498
103	0xbdedaa04	-0.116046935
104	0x3d664613	0.05621917
105	0xbd7cac8e	-0.061688
106	0x3e1bf0d4	0.15228587
107	0x3dc58e60	0.096462965
108	0xbdac72b7	-0.084203176
109	0xbe2ee3a5	-0.17079027
110	0x3d338466	0.043827437
111	0xbc4717a3	-0.0121516315
112	0x3e22f5fd	0.1591415
113	0x3b3c5501	0.002873719
114	0x3c6ce1ca	0.014458129
115	0x3cabbcd1	0.020964058
116	0xbc08ac2d	-0.008341831
117	0xbd5cf5d8	-0.053945392
118	0xbe2c7910	-0.16843057
119	0x3dfa7a1d	0.122303225
120	0xbdbe469f	-0.09290814
121	0x3e248082	0.16064647
122	0xba7f9b48	-0.0009750617
123	0x3e0a4f77	0.13506876
124	0x3e23381e	0.15939376
125	0xbd1827e1	-0.037147406
126	0x3de765eb	0.11298736
127	0x3be687df	0.00703524
128	0xbce44c30	-0.02786836
129	0x3d199f48	0.037505418
130	0x3b2db1cf	0.0026503687
131	0x3e57e949	0.21085085
132	0xbe3b2691	-0.1827643
133	0x3e030348	0.1279422
134	0x3c8858af	0.01664385
135	0x3e5e338d	0.21699353
136	0x3e148509	0.14503874
137	0xbde5baba	-0.11217256
138	0x3e0c4885	0.13699539
139	0x3e5d3f7c	0.21606249
140	0xbe2aa5e6	-0.16664848
141	0xbd48d0e9	-0.049027357
142	0x3d8f0fc3	0.06985428
143	0x3e65e3ec	0.22450227
144	0x3e13fd5a	0.14452115
145	0x3dbeed83	0.093226455
146	0xbdbfbb04	-0.09361842
147	0x3d57b289	0.0526605
148	0xbd8abc62	-0.067742124
149	0x3b222129	0.0024739003
150	0x3c7e2315	0.015511294
151	0xbe137186	-0.14398775
152	0x3d11ec69	0.03562585
153	0xbe0932ad	-0.13398238
154	0xbdce8c6a	-0.100853756
155	0x3e82cc6b	0.25546584
156	0xbd925b76	-0.07146351
157	0x3cbcc922	0.023045126
158	0xbdd1ddfa	-0.10247417
159	0x3cc4c258	0.024018452
160	0x3da0b2c1	0.078465946
161	0x3dd6778c	0.104720205
162	0xbd8f9422	-0.07010676
163	0x3e3e9480	0.18611336
164	0x3e4494d4	0.19197398
165	0x3dca6bfe	0.09883879
166	0xbe1546a0	-0.14577723
167	0xbd804602	-0.06263353
168	0xbe0d85fe	-0.13820645
169	0x3d609fe0	0.05483997
170	0xbbf513db	-0.0074791736
171	0x3d09f36d	0.033679415
172	0x3e34c3c1	0.17652799
173	0x3df4c7f5	0.11952201
174	0xbe1f2068	-0.15539706
175	0xbdd03f37	-0.10168307
176	0x3e0e80ca	0.13916317
177	0x3d295ade	0.041346423
178	0xbb300ecd	-0.002686429
179	0xbe0175eb	-0.12642638
180	0xbd0fdcff	-0.035122868
181	0xba59fb31	-0.00083153235
182	0xbe19eead	-0.15032454
183	0x3e0a12cb	0.13483731
184	0x3e474c5a	0.1946272
185	0xbd9320d3	-0.07183995
186	0xbda391d9	-0.079868026
187	0xbd49b8c3	-0.049248468
188	0x3afe62ab	0.0019408067
189	0xbdb5904f	-0.08865415
190	0x3e03b4a4	0.12861878
191	0xbd950006	-0.07275395
192	0xbbeb8d82	-0.0071885
193	0xbe120711	-0.14260508
194	0x3bc32d6f	0.005956344
195	0xbb23b0c5	-0.002497719
196	0xbc9da42f	-0.019243328
197	0x3e17e44e	0.14833185
198	0xbe505dee	-0.20348331
199	0x3dca51f3	0.09878912
200	0xbd46c0dc	-0.04852377
201	0xbd0ea9f1	-0.034830038
202	0xbe05f8e9	-0.13083233
203	0xbe327928	-0.1742903
204	0xbe4797b1	-0.1949146
205	0x3e3b2cb9	0.18278779
206	0xbdd6e9e4	-0.1049383
207	0x3de9b0b0	0.114106536
208	0xbcf8b5b3	-0.030360078
209	0xbd91ef27	-0.07125693
210	0x3d88c733	0.06678619
211	0x3e694164	0.22778851
212	0xbc0e34c9	-0.008679577
213	0x3d417897	0.047234144
214	0x3d432641	0.047643904
215	0x3dcd1d6a	0.10015376
216	0x3e194868	0.14969027
217	0x3d68c25b	0.056825977
218	0xbcb209ca	-0.021733183
219	0x3ce5d6f9	0.028056609
220	0x3d465a65	0.04842605
221	0xbca57a6d	-0.020199979
222	0xbd64b5d7	-0.05583748
223	0x3e0e8183	0.13916592
224	0xbd5b3187	-0.05351403
225	0x3d9f9350	0.077917695
226	0xbd2e95aa	-0.0426232
227	0xbe04fd32	-0.12987211
228	0xbdac7946	-0.084215686
229	0xbe322894	-0.17398292
230	0x3d4704e6	0.048588656
231	0xbdf4a0ec	-0.11944756
232	0x3c5a5f2b	0.013328354
233	0x3d7e11e6	0.062028788
234	0xbd903a31	-0.07042349
235	0xbb22494d	-0.002476293
236	0xbcc7e409	-0.024400728
237	0x3de9201e	0.11383079
238	0x3daf1897	0.08549612
239	0xbcfbb4a3	-0.030725783
240	0x3e122bb5	0.14274485
241	0xbbaf0568	-0.0053412206
242	0xbe6e866a	-0.23293462
243	0xbda5b102	-0.08090402
244	0xbcb58d4a	-0.022162098
245	0xbc83e5b8	-0.01610075
246	0xbdb300fd	-0.08740423
247	0xbd5c67ba	-0.05380986
248	0x3e2afd43	0.16698174
249	0x3bb5ca56	0.005547802
250	0xbe58929d	-0.21149679
251	0xbe084697	-0.13308178
252	0xbe4125a8	-0.18862021
253	0xbe3d88b8	-0.18509185
254	0xbe12c676	-0.1433352
255	0xbce3cb03	-0.027806764

lstm_2.weight_hh_l0 f4 [128, 32]
0	0xbde402d2	-0.111333504
1	0xbe96573b	-0.29363427
2	0xbe963862	-0.29339892
3	0xbe4be7e7	-0.19912682
4	0x3e5ac5e0	0.21364546
5	0xbe0a6856	-0.13516364
6	0x3e295c4d	0.16539116
7	0xb9d1ebc7	-0.00040039254
8	0xbe13161a	-0.143639
9	0xbc0982ba	-0.008392984
10	0xbca4f491	-0.02013615
11	0xbd0a7b14	-0.033808783
12	0xbda161ed	-0.07880006
13	0xbe5c500a	-0.21514907
14	0x3d8efb19	0.06981487
15	0x3e3d556f	0.18489622
16	0xbcd003e5	-0.025392482
17	0x3e441552	0.19148758
18	0x3e386621	0.18007709
19	0x3defab8c	0.11702642
20	0x3de3e94b	0.111284815
21	0xbe79190b	-0.2432596
22	0x3e24c7de	0.16091868
23	0xbd6e9e1e	-0.05825626
24	0xbe27aa2c	-0.16373509
25	0x3c69f6a9	0.01428
26	0x3e568591	0.20949389
27	0xbd4e4ed5	-0.05036815
28	0x3d3a56ba	0.045492865
29	0x3e0d3217	0.13788639
30	0x3e1c9092	0.15289524
31	0xbe72815b	-0.23682158
32	0xbbbca7ef	-0.005757324
33	0xbd5a5dfa	-0.05331228
34	0xbd9e5257	-0.07730549
35	0x3d3b0fbd	0.045669306
36	0x3d7acb0c	0.061228797
37	0x3c6e5ed6	0.014548978
38	0x3e33a3fd	0.17543025
39	0xbd800526	-0.06250982
40	0xbd38efb1	-0.045150463
41	0xbe365f1e	-0.17809722
42	0xbc39611c	-0.011314657
43	0xbaad155c	-0.0013205218
44	0x3d8028f1	0.06257809
45	0x3df4a7f7	0.11946099
46	0xbe52aa54	-0.20572788
47	0xbd5412d9	-0.051775787
48	0x3daff00d	0.08590708
49	0xbd4a201b	-0.049347024
50	0x3df297bb	0.118453465
51	0x3e3374f4	0.17525083
52	0xbb6eb878	-0.003642587
53	0xbe53df61	-0.20690681
54	0x3dd3cbf0	0.10341632
55	0x3c9c2d44	0.019064553
56	0x3dbb0940	0.09132624
57	0x3d927b1b	0.07152387
58	0x3e061e26	0.13097438
59	0xbe56f7c6	-0.20992956
60	0xbc3ce8a0	-0.0115300715
61	0x3d5b0a54	0.053476647
62	0x3dd1bf31	0.10241545
63	0xbe2bc585	-0.16774566
64	0xbd914105	-0.070924796
65	0xbe3acf38	-0.1824311
66	0xbe42251a	-0.18959466
67	0xbc485d5d	-0.012229291
68	0x3d323c62	0.043514617
69	0x3d72aba6	0.059245728
70	0x3d85a831	0.065262206
71	0xbd46293b	-0.048379164
72	0xbc580cc3	-0.013186636
73	0x3cb163ee	0.021654096
74	0xbe0dce1e	-0.13848159
75	0x3e09c01e	0.13452193
76	0x3c9e39f5	0.019314745
77	0x3d8f763f	0.070049755
78	0xbe2dda36	-0.16977772
79	0x3e264cbd	0.16240211
80	0xbe4bc9c2	-0.19901183
81	0x3ddc27df	0.10749792
82	0x3ded941b	0.116005145
83	0xbbc7c0a7	-0.006095964
84	0x3dfb43e9	0.12268812
85	0xbe6dd689	-0.2322637
86	0xbc74d6ca	-0.014943788
87	0xbdfffc98	-0.1249935
88	0xbe2a449d	-0.16627736
89	0x3caace18	0.020850226
90	0x3e46186c	0.19345254
91	0xbd94c353	-0.07263818
92	0x3dfca6fd	0.12336538
93	0xbe04d1dd	-0.12970681
94	0x3d6cdb16	0.057826124
95	0x3da9e90b	0.082964025
96	0x3dacdab4	0.08440152
97	0xbe1b92ff	-0.15192793
98	0xbe8db477	-0.27676746
99	0xbe239d03	-0.15977864
100	0x3e700b61	0.2344184
101	0x3d88b483	0.06675055
102	0x3e8aaba9	0.2708409
103	0xbe66921a	-0.22516671
104	0xbd8f16da	-0.069867805
105	0x3c436362	0.01192555
106	0xbcb14fcf	-0.021644501
107	0xbc707345	-0.01467592
108	0x3dc1c92b	0.09462198
109	0xbe26fc82	-0.16307262
110	0xbe50afea	-0.20379606
111	0x3dfe8352	0.12427391
112	0xbdb62c17	-0.08895128
113	0xbd82791f	-0.06370758
114	0xbd54ce77	-0.051954713
115	0xbd8c9759	-0.06864805
116	0x3e14fefc	0.14550394
117	0x3b071c17	0.0020616108
118	0xbdac6136	-0.08416979
119	0xbe1ac9f7	-0.15116106
120	0x3dd1387b	0.10215851
121	0x3b3969a6	0.002829173
122	0xbd6fb7cf	-0.058524903
123	0xbe12bbb4	-0.14329416
124	0xbe3e538b	-0.18586557
125	0xbce478ed	-0.027889693
126	0x3d782fb5	0.060592372
127	0xbd9ccb02	-0.07655908
128	0x3c83b746	0.016078603
129	0x3dffe5a5	0.12494973
130	0x3d82aa5e	0.06380151
131	0x3d98033d	0.07422493
132	0x3e34c461	0.17653038
133	0x3cd3476d	0.025790894
134	0x3e173476	0.14766106
135	0x3e247ec8	0.16063988
136	0xbda6fe06	-0.0815392
137	0xbca6d2a1	-0.020364108
138	0xbd21e495	-0.039524633
139	0xbda79d2e	-0.081842765
140	0x3d5b417e	0.053529255
141	0xbda38ae3	-0.07985475
142	0xbe35cd54	-0.17754108
143	0xbd5137c2	-0.051078565
144	0xbe164ea6	-0.1467844
145	0x3de9efa8	0.11422664
146	0x3c9e85e2	0.01935095
147	0xbe1f1847	-0.15536605
148	0x3d80274b	0.062574945
149	0xbe2a7167	-0.16644822
150	0x3dfee150	0.12445319
151	0x3e041622	0.12899068
152	0xbdcc8489	-0.099862166
153	0xbd0163f9	-0.031589482
154	0x3e40aae2	0.18815187
155	0xbe0c12de	-0.13679072
156	0xbdc4f9b7	-0.09617942
157	0xbe0d55de	-0.13802287
158	0x3e35e36e	0.17762539
159	0x3d08aaae	0.033365898
160	0xbe0da260	-0.13831472
161	0xba87820a	-0.0010338437
162	0x3d814fb9	0.06314034
163	0xbd49354e	-0.0491231
164	0xbd4f2ce3	-0.050579917
165	0xbc1c3909	-0.009535083
166	0x3e7d6e3b	0.24749081
167	0x3d37610c	0.044770285
168	0xbdc97a87	-0.09837823
169	0x3d318625	0.04334082
170	0xbe1fe89f	-0.15616082
171	0x3e152e5a	0.14568463
172	0x3d4689ba	0.04847119
173	0xbce24511	-0.027620824
174	0xbe65921c	-0.22419018
175	0x3db85685	0.09000877
176	0x3c9d7b71	0.0192239
177	0x3e186d6a	0.14885488
178	0xbda4bcd4	-0.080438286
179	0xbd8dba17	-0.069202594
180	0x3d96ff30	0.07372892
181	0xbe012008	-0.12609875
182	0x3ba145a9	0.004921634
183	0xbe318ec8	-0.17339623
184	0xbc38182c	-0.011236232
185	0x3e236c0c	0.15959185
186	0x3d0edd27	0.034878876
187	0x3d495d25	0.049161095
188	0xbd4210a9	-0.04737917
189	0x3d87c576	0.066294596
190	0xbc53ec9c	-0.01293483
191	0xbe194927	-0.14969312
192	0xbda274b4	-0.079324156
193	0xbdaba52a	-0.08381112
194	0x3c2ebc0b	0.01066495
195	0xbe22fe04	-0.15917212
196	0xbd16a968	-0.036782652
197	0xbe098ee6	-0.13433418
198	0x3c6c9d29	0.014441767
199	0xbb0e9ff2	-0.0021762815
200	0x3df08aa9	0.11745197
201	0xbe5db8a2	-0.21652463
202	0xbdaa5278	-0.08316511
203	0x3e1df973	0.15427189
204	0xbde9dc68	-0.11418992
205	0x3df94b63	0.12172582
206	0xbd36d64f	-0.044637974
207	0xbe12a986	-0.1432248
208	0x3c40844b	0.011750291
209	0xbdae08e6	-0.08497791
210	0x3d199a63	0.03750075
211	0xbe577aa9	-0.21042885
212	0x3e42ca78	0.19022548
213	0xbe09b8ee	-0.13449451
214	0x3e1c242c	0.15248173
215	0xbe2ff357	-0.1718267
216	0xbe239e46	-0.15978345
217	0x3de69103	0.112581275
218	0x3e01c3ff	0.12672423
219	0xbd99eb54	-0.075155884
220	0xbe0e68c3	-0.13907151
221	0x3d3fb86c	0.046806738
222	0xbdc9e408	-0.09857947
223	0xbd3c8bac	-0.04603164
224	0xbadb27ca	-0.0016720232
225	0x3d98a525	0.07453374
226	0x3e00e2f2	0.12586573
227	0xbe026eaa	-0.12737527
228	0x3e4103e7	0.18849145
229	0x3e0ee7cf	0.13955615
230	0x3d911485	0.07083992
231	0xbe49dcb4	-0.19713098
232	0xbe042024	-0.12902886
233	0x3d3a36a0	0.04546225
234	0x3dd4a740	0.10383463
235	0x3e0b1297	0.1358131
236	0xbd4a27c4	-0.04935433
237	0xbe12b73a	-0.14327708
238	0xbe3dd552	-0.18538406
239	0xbd65fbc2	-0.056148298
240	0xbd2948eb	-0.041329306
241	0x3d88955a	0.066691115
242	0x3dff1877	0.12455838
243	0xbe0d2fda	-0.13787785
244	0x3e0a0eff	0.13482283
245	0x3dcc1fad	0.09966979
246	0xbe22ce2b	-0.1589896
247	0xbe0e3019	-0.13885535
248	0xbda1e6fe	-0.079053864
249	0x3d9537a7	0.072860055
250	0x3e4333ee	0.19062778
251	0xba13ee05	-0.00056430727
252	0x3dc750c5	0.097322024
253	0x3e2a34a7	0.16621648
254	0x3ddfce0e	0.10927974
255	0xbe4fdacb	-0.20298307

lstm_2.bias_ih_l0 f4 [128]
0	0x3e4d80a9	0.20068611
1	0xbce0b2e4	-0.027429052
2	0x3ce0415c	0.027374916
3	0x3df69759	0.12040586
4	0x3e3686e3	0.17824893
5	0x3e192294	0.14954597
6	0x3e662c48	0.2247783
7	0xbd68542d	-0.0567209
8	0x3d7f04a6	0.062260292
9	0x3d2df438	0.042469233
10	0x3e38d7db	0.18051092
11	0x3e5176e6	0.20455512
12	0x3d993094	0.07479969
13	0xbdb3f2b3	-0.087865256
14	0xbdbae1c1	-0.091250904
15	0x3d925855	0.07145754
16	0xbdb19a03	-0.086719535
17	0x3944557c	0.00018723862
18	0xbdb67503	-0.08909037
19	0x3e119323	0.14216284
20	0x3c47a0c0	0.012184322
21	0xbda3446e	-0.07972036
22	0x3e21ea96	0.15812144
23	0xbdf58570	-0.11988342
24	0x3d6a0783	0.05713607
25	0x3e4c7e1a	0.19969979
26	0x3e0d6dbf	0.13811396
27	0xbdc232ce	-0.094823465
28	0x3d9740b2	0.073853865
29	0x3d393043	0.04521204
30	0x3e02fe8a	0.12792411
31	0x3e595436	0.2122353
32	0x3e7441e8	0.23853266
33	0x3d654887	0.05597737
34	0x3e10eab0	0.14152026
35	0xbded5bfc	-0.1158981
36	0x3e4e7c41	0.20164587
37	0x3e2450f5	0.16046508
38	0xbd8811d0	-0.066440225
39	0xbcbf5897	-0.023357673
40	0x3c60a155	0.01371034
41	0xbd490ad1	-0.04908258
42	0x3dca77d8	0.0988614
43	0xbc2aa29c	-0.010414746
44	0x3dbceec9	0.09225232
45	0xbc32cbca	-0.010912845
46	0x3e28e85f	0.16494893
47	0xbd125759	-0.035727832
48	0x3d5edeec	0.054411814
49	0xbcb5a7b2	-0.02217469
50	0x3cb037df	0.021511016
51	0xbc207e41	-0.009795726
52	0xbdcd5bb2	-0.10027255
53	0xbdd95822	-0.10612513
54	0x3e2bc964	0.16776043
55	0x3d5bc7f3	0.053657483
56	0xbd84cbc4	-0.06484178
57	0x3dfb0137	0.12256091
58	0x3d587404	0.052845016
59	0xbc418fac	-0.011814039
60	0x3bc622f9	0.0060466495
61	0x3d8190ce	0.063264474
62	0x3e28efdd	0.1649775
63	0xbde2c2ab	-0.11072286
64	0xbe1ad27b	-0.15119354
65	0xbe28f559	-0.16499843
66	0xbe203cfd	-0.15648265
67	0xbc412a41	-0.011789859
68	0x3dd2941b	0.10282155
69	0x3d919c36	0.07109873
70	0x3dbb797a	0.09154029
71	0x3a618292	0.00086025253
72	0xbc603c45	-0.013686244
73	0xbe4dc7c2	-0.20095733
74	0x3e11a4a0	0.14222956
75	0x3e3f2546	0.18666562
76	0xbce9ade6	-0.028525304
77	0x3cb245cc	0.021761797
78	0x3cc7fd4d	0.024412775
79	0x3e264522	0.1623731
80	0xbc2ee73b	-0.010675247
81	0xbd069cf9	-0.032864545
82	0xbde1892b	-0.11012491
83	0x3d60f925	0.054925103
84	0x3dbe4628	0.09290725
85	0xbe428c75	-0.18998893
86	0x3dc3af77	0.09554952
87	0x3d054dc8	0.03254488
88	0x3db26896	0.087113544
89	0x3dd5a71f	0.104322664
90	0xbc8e693f	-0.01738417
91	0xbceb1856	-0.028698128
92	0xbdf1bf96	-0.1180412
93	0x3de33121	0.11093355
94	0xbe10ba0f	-0.14133476
95	0xbe27c9a9	-0.16385521
96	0xbd04cfb9	-0.032424662
97	0xbc605607	-0.0136923855
98	0x3dc43cc2	0.09581901
99	0x3e83aab2	0.25716168
100	0x3d80acac	0.062829345
101	0x3e57f4b0	0.21089435
102	0x3d7ab5a2	0.061208375
103	0x3e3e67e7	0.18594323
104	0x3e3e39ed	0.18576784
105	0x3e32959b	0.17439882
106	0x3df02b93	0.11727061
107	0xbd9ddc36	-0.077080175
108	0x3e5e20b3	0.21692161
109	0xbdc3a0e5	-0.095521726
110	0xbdacf618	-0.08445376
111	0xbd318fd7	-0.043350067
112	0x3cfc0a3f	0.030766604
113	0x3e15bb8f	0.14622329
114	0x3dcf0f99	0.10110397
115	0xbdaf1b58	-0.08550137
116	0x3e56b71f	0.20968293
117	0x3e7067d6	0.2347711
118	0x3e1e65a4	0.1546846
119	0xbe03df9b	-0.12878267
120	0x3e4e21f4	0.2013014
121	0x3da8a981	0.08235455
122	0x3cebd12f	0.02878627
123	0xbdb437af	-0.08799683
124	0x3e58ae56	0.21160254
125	0x3ccb1674	0.02479098
126	0xbdb3a3d7	-0.08771484
127	0x3e4c7b8f	0.19969009

lstm_2.bias_hh_l0 f4 [128]
0	0x3e23c4d4	0.15993053
1	0x3dec6b22	0.115438715
2	0x3e2a4284	0.16626936
3	0x3e29a3ad	0.16566344
4	0x3c939d40	0.018019319
5	0x3d28cd17	0.041211214
6	0x3e4d54b9	0.2005185
7	0x3d040b15	0.03223713
8	0xbd91143c	-0.070839375
9	0xbd842b06	-0.064535186
10	0xbdc53f97	-0.096312694
11	0x3d60337d	0.054736603
12	0x3e2308db	0.15921347
13	0x3e2426ae	0.1603038
14	0x3dab2871	0.08357323
15	0x3dc84c19	0.097801395
16	0xbc74e0dd	-0.01494619
17	0x3e687c94	0.22703773
18	0x3de12726	0.10993795
19	0xbd72e489	-0.05929998
20	0xbda65d17	-0.08123224
21	0xbdcc1865	-0.099655904
22	0xbbec10be	-0.0072041443
23	0x3e2995c5	0.16561039
24	0x3dad8a36	0.08473627
25	0xbd5c9d1f	-0.05386078
26	0x3dca5d46	0.09881072
27	0xbd841135	-0.064485945
28	0x3ddbcf77	0.1073293
29	0x3e447fd3	0.19189386
30	0x3e0a63d2	0.13514641
31	0xbb6b9b53	-0.0035950735
32	0x3ce78c9d	0.028265292
33	0x3e15c4f1	0.14625908
34	0x3e29d567	0.16585313
35	0x3c68bc33	0.014205026
36	0x3d7efa90	0.062250674
37	0x3d4024df	0.046910163
38	0x3d162447	0.03665569
39	0xbe03ee93	-0.12883978
40	0xbd80ef4d	-0.06295643
41	0x3e51a9d8	0.20474946
42	0xbd706745	-0.058692235
43	0x3e2fbc1e	0.17161605
44	0x3e036175	0.12830146
45	0x3c81f6e7	0.015864803
46	0xbd6bf577	-0.05760714
47	0x3d212021	0.03933728
48	0x3d5ec910	0.054390967
49	0xbd93808e	-0.07202254
50	0x3e3cd7e0	0.18441725
51	0x3d28b933	0.041192245
52	0xbb5df79a	-0.0033869506
53	0xbd6d79ab	-0.05797736
54	0x3db18cb2	0.086694136
55	0x3d5ba9d8	0.053628772
56	0x3e63ef29	0.22259201
57	0xbcbf52a6	-0.02335484
58	0x3e08bbe7	0.13352929
59	0x3d77054d	0.06030779
60	0x3de37d93	0.11107936
61	0x3d405f03	0.04696561
62	0x3c0418f9	0.008062595
63	0x3df52527	0.11969977
64	0xbdbdf810	-0.0927583
65	0x3dad3e16	0.084591076
66	0xbe29b5dd	-0.16573282
67	0xbe0ef526	-0.13960704
68	0x3e313530	0.17305446
69	0xbd2ab05a	-0.04167209
70	0xbdfd7c67	-0.123772435
71	0xbe192b3e	-0.14957902
72	0x3e24e984	0.16104704
73	0xbd864ee2	-0.065580145
74	0xbe282182	-0.16419032
75	0xbc1db876	-0.009626498
76	0xbde8c96b	-0.113665424
77	0xbe03ce6b	-0.12871711
78	0xbdc227e4	-0.09480265
79	0x3df88367	0.12134438
80	0x3d79a0ba	0.060944296
81	0x3dcbb757	0.09947079
82	0x3a2fa3df	0.0006700139
83	0xbd84683e	-0.06465195
84	0xbd78a17a	-0.06070087
85	0xbe234701	-0.15945055
86	0xbdbda468	-0.09259874
87	0xbe27e8cb	-0.16397397
88	0x3d244f25	0.04011454
89	0x3de9e4f6	0.11420624
90	0x3e313d24	0.1730848
91	0xbd68cd3f	-0.056836363
92	0xbca38af9	-0.019963728
93	0xbc2643cb	-0.010147999
94	0x3d9dba2e	0.077015266
95	0xbd16dd94	-0.036832407
96	0x3d1560ab	0.036469143
97	0x3d13ba29	0.036066208
98	0xbdac044b	-0.08399256
99	0x3bb9bf87	0.005668584
100	0x3c2c9eb0	0.010535881
101	0x3dcf9060	0.10134959
102	0xbca9d76d	-0.020732606
103	0x3dd4df90	0.10394204
104	0xbd02e73a	-0.031958796
105	0x3e6f2ba1	0.23356487
106	0xbde2b1a3	-0.11069038
107	0x3e0fb153	0.14032488
108	0xbd426ac3	-0.047465097
109	0x3c222c5a	0.00989827
110	0xbe00940e	-0.12556478
111	0xbdcd1aa2	-0.100148454
112	0xbdb75259	-0.089512534
113	0x3d87772b	0.06614526
114	0x3e681491	0.22664095
115	0x3e1676b0	0.14693713
116	0x3e195bdf	0.14976452
117	0x3dde5ac5	0.10857157
118	0xba0fcb77	-0.0005485336
119	0xbcc9aa5d	-0.024617368
120	0x3d4e919f	0.050431844
121	0xbe082688	-0.13295949
122	0x3e171b07	0.14756404
123	0x3bee1987	0.0072662267
124	0xbd192c1e	-0.03739559
125	0x3df83f3f	0.12121438
126	0x3d61ef59	0.0551599
127	0x3e23752a	0.15962663

lstm_3.weight_ih_l0 f4 [64, 32]
0	0xbed0189d	-0.40643778
1	0x3e30b4bd	0.17256446
2	0xbe2b525f	-0.16730641
3	0x3ce5deff	0.028060434
4	0x3e6cd192	0.2312682
5	0x3defe9dd	0.11714528
6	0xbd7e0472	-0.062015958
7	0xbee64bef	-0.44979808
8	0x3eaf533d	0.34243193
9	0xbe85f200	-0.26161194
10	0xbe5fb735	-0.21847232
11	0x3e5169d8	0.20450532
12	0xbe1c49d7	-0.15262543
13	0x3dac2e24	0.08407238
14	0x3c4885e7	0.012238956
15	0x3c07dbe9	0.008292177
16	0x3de50143	0.11181881
17	0xbd753189	-0.059861694
18	0x3e81d968	0.2536118
19	0xbec783a6	-0.38967627
20	0x3dc34682	0.09534933
21	0xbe557462	-0.20845178
22	0x3e95281b	0.2913216
23	0x3d35b4cc	0.044361874
24	0xbcd6c40c	-0.02621653
25	0x3e42631c	0.1898312
26	0xbdaf75e3	-0.08567407
27	0xbd7273b5	-0.059192378
28	0xbd14bc05	-0.036312122
29	0x3cd42296	0.025895398
30	0xbced3f00	-0.028960705
31	0xbc967f10	-0.018371135
32	0x3e5823bb	0.2110738
33	0xbd42ef31	-0.047591392
34	0xbe50ea5d	-0.20401902
35	0xbd962542	-0.07331325
36	0x3d883aae	0.06651817
37	0x3e21cc58	0.15800607
38	0x3e096a98	0.13419569
39	0x3e3e0aea	0.18558851
40	0xbcfc4abc	-0.030797355
41	0xbe8d4c11	-0.27597097
42	0xbe1aaa63	-0.1510406
43	0x3ead83c3	0.3388959
44	0x3e167cec	0.14696091
45	0x3d9f6509	0.07782943
46	0xbe81228e	-0.25221676
47	0x3e852f0a	0.2601245
48	0xbc52a6aa	-0.012857119
49	0xbe0242f0	-0.12720847
50	0x3c535c0d	0.012900365
51	0x3e9c784f	0.30560538
52	0xbdd6c7e8	-0.10487348
53	0xbd811cbc	-0.06304309
54	0x3dc43951	0.09581245
55	0xbe164c2c	-0.14677495
56	0x3d9cb58d	0.076518156
57	0x3e9c67b6	0.30547875
58	0x3e9570cb	0.29187617
59	0xbe82a50c	-0.25516546
60	0xbd73724a	-0.059435166
61	0x3e7d7f33	0.24755554
62	0x3e70f08c	0.23529261
63	0xbe039729	-0.12850632
64	0x3e19d7bd	0.15023704
65	0x3cb47903	0.02203036
66	0xbe1e6744	-0.1546908
67	0xbdac8a11	-0.084247716
68	0x3e80ab22	0.25130564
69	0xbd9e221c	-0.077213496
70	0xbcbdc355	-0.02316443
71	0xbe636e6d	-0.22210093
72	0xbe99a331	-0.30007318
73	0xbe7e4f3a	-0.2483491
74	0x3d9e556a	0.07731135
75	0x3e748021	0.23877002
76	0xbe2187f2	-0.15774515
77	0x3d732f1f	0.05937111
78	0x3dacf584	0.08445266
79	0x3da04223	0.078251146
80	0xbea03803	-0.31292734
81	0x3ea0bbd7	0.3139331
82	0x3e21e50d	0.15810032
83	0x3d4fcb9d	0.05073129
84	0x3e0488ab	0.1294276
85	0xbea9efa4	-0.33190644
86	0x3e0c62af	0.1370952
87	0xbd9d2219	-0.07672519
88	0xbe4e8f5e	-0.20171878
89	0x3cbc2441	0.022966506
90	0x3e8429d6	0.25813168
91	0xbcb050b6	-0.021522861
92	0xbe4c8f85	-0.19976623
93	0x3e8d4a98	0.27595973
94	0x3de5d963	0.11223104
95	0xbe6c5932	-0.230809
96	0x3e5668a7	0.20938359
97	0x3e9223c7	0.2854292
98	0xbd4531e4	-0.048143283
99	0xbddc088c	-0.10743818
100	0xbdb9129b	-0.09036752
101	0xbe298fae	-0.16558716
102	0x3e07137b	0.13191025
103	0x3e4d474e	0.20046732
104	0xbe19a8d6	-0.15005812
105	0x3de84b9d	0.11342547
106	0xbbd82b0e	-0.0065969294
107	0x3cb49b25	0.022046635
108	0xbde5472f	-0.11195218
109	0xbe90d4b7	-0.2828729
110	0xbe70a76b	-0.23501365
111	0x3e8677e5	0.26263347
112	0xbd71c089	-0.059021506
113	0x3d001f37	0.03127977
114	0xbe348f23	-0.17632727
115	0xbd9fa832	-0.077957526
116	0xbd84d348	-0.06485611
117	0xbc2a44f3	-0.010392415
118	0xbe6414ab	-0.22273509
119	0x3d02bd54	0.03191884
120	0xbe8410a1	-0.25793937
121	0xbe0c505e	-0.13702533
122	0x3c7baee8	0.015361525
123	0xbccd0aaf	-0.025029508
124	0xbdcaf64d	-0.099102594
125	0x3e049b22	0.12949803
126	0x3c757d34	0.014983464
127	0x3d3f1537	0.04665109
128	0xbc0b0d7f	-0.008487104
129	0xbe21896e	-0.15775082
130	0xbeb14d2c	-0.3462919
131	0xbe984ef8	-0.29747748
132	0x3e44421e	0.19165847
133	0x3e739fbf	0.23791407
134	0x3e4bb948	0.19894898
135	0x3ddb7401	0.10715485
136	0xbe100897	-0.14065777
137	0xbe0e2efa	-0.13885108
138	0xbe0a2c04	-0.13493353
139	0x3cbff7d4	0.023433603
140	0x3e5eaa49	0.21744646
141	0xbe93b0a2	-0.28845698
142	0x3cc825e7	0.024432136
143	0x3e698f98	0.22808683
144	0xbe372b0d	-0.17887516
145	0x3e2a74a3	0.16646056
146	0xbdfbbba4	-0.12291649
147	0x3b6b7b07	0.0035931484
148	0xbe2e7fee	-0.17040989
149	0xbd28c3d3	-0.041202378
150	0x3d201072	0.039078183
151	0xbdbf57c3	-0.09342911
152	0xbe24f81c	-0.16110271
153	0x3be27616	0.0069110496
154	0xbe9f58f6	-0.3112256
155	0xbd96d716	-0.07365243
156	0x3e527aac	0.20554608
157	0xbcea2d9e	-0.028586205
158	0xbe0f42f9	-0.13990392
159	0xbd84efee	-0.064910755
160	0x3d3a054a	0.0454152
161	0xbc20f0a1	-0.009822995
162	0x3de598c9	0.11210782
163	0xbc9e49df	-0.019322334
164	0xbdad30ff	-0.08456611
165	0xbe0ae739	-0.13564767
166	0xbe309b7f	-0.17246817
167	0xbe911257	-0.28334305
168	0x3e385998	0.18002927
169	0x3e3b4edb	0.182918
170	0x3e27b063	0.1637588
171	0x3e52109e	0.20514151
172	0x3d85559f	0.065104716
173	0x3dc68255	0.096928276
174	0x3dce2a34	0.10066643
175	0xbe70f35b	-0.23530333
176	0x3ad69306	0.0016370721
177	0xbe98de35	-0.2985703
178	0x3e923bc3	0.2856122
179	0xba76e26a	-0.00094178936
180	0x3e7d7cf0	0.24754691
181	0xbdc400d4	-0.095704705
182	0x3e57136f	0.21003507
183	0x3d27f6a2	0.04100669
184	0x3cc66b95	0.024221221
185	0x3ca76ea8	0.020438507
186	0x3e054b8a	0.13017097
187	0xbdda4148	-0.10656983
188	0x3e7cffd7	0.2470697
189	0x3df1dc35	0.11809579
190	0xbe244e55	-0.16045506
191	0xbe45a752	-0.19302109
192	0xbe2034dc	-0.15645164
193	0x3dace856	0.08442752
194	0x3e113c4b	0.14183156
195	0xbdfbc660	-0.122936964
196	0xbe41f06e	-0.18939373
197	0x3e206388	0.15662968
198	0x3bd9f54e	0.006651557
199	0xbe91b1a5	-0.28455845
200	0x3ddc2502	0.10749246
201	0xbd90cd14	-0.070703655
202	0x3e057460	0.13032675
203	0x3d8788c2	0.06617881
204	0xbe1eedf1	-0.15520455
205	0xbe0c93b6	-0.13728222
206	0xbe2f8b48	-0.17142975
207	0x3daf4d72	0.085596934
208	0x3dbd0458	0.09229344
209	0x3dde574d	0.10856495
210	0xbe264030	-0.16235423
211	0xbe40ae6a	-0.18816534
212	0xbe0e8aae	-0.1392009
213	0xbe8b9447	-0.27261564
214	0xbe8095a8	-0.2511418
215	0xbe85187c	-0.25995243
216	0x3e71ebfa	0.23625174
217	0xbd4870a7	-0.04893556
218	0xbd8ed437	-0.069740705
219	0x3cc55196	0.024086755
220	0x3e107857	0.14108406
221	0x3db43a58	0.08800191
222	0xbe702d98	-0.23454893
223	0x3e168808	0.1470033
224	0xbda8efcf	-0.08248865
225	0xbe61d993	-0.22055654
226	0x3d839302	0.06424524
227	0xbe8bcf5a	-0.27306634
228	0xbd61dd75	-0.05514284
229	0x3e2608ac	0.16214246
230	0x3e349824	0.17636162
231	0xbe05d778	-0.13070476
232	0xbd8792b5	-0.06619779
233	0xbdc9ac2d	-0.09847293
234	0x3da728f7	0.0816211
235	0x3e137aac	0.14402264
236	0xbc9e5b3c	-0.019330613
237	0x3e066cf8	0.13127506
238	0xbe82337d	-0.25429907
239	0xbd9f8ef7	-0.0779094
240	0xbe0946ee	-0.13405964
241	0xbd820a89	-0.06349666
242	0xbe65cc46	-0.22441205
243	0x3e4ef0d0	0.2020905
244	0x3e9dad66	0.30796355
245	0x3de551ed	0.11197267
246	0xbdd1aa80	-0.102375984
247	0xbdaec71e	-0.08534072
248	0xbe4c22fe	-0.19935223
249	0x3adc88ac	0.0016825399
250	0x3e8a1aaf	0.26973483
251	0xbd178acd	-0.036997605
252	0x3d33ff60	0.043944716
253	0xbea86b14	-0.32894194
254	0x3db313c1	0.08744002
255	0x3da402ac	0.08008322
