checkpoints/lstm_8_15_30.onnx (onnx, 85702 bytes, 15 tensors)

fc_1.0.weight f4 [128, 16]
-0.17821793 -0.20587249 0.20086719 -0.11329967 0.2700478 -0.047878884 -0.056162726 -0.21925887
-0.13729268 0.3421626 -0.2279501 -0.24713835 0.10193582 0.14525321 -0.12233225 -0.09956666
0.19663598 -0.098568045 0.1830421 -0.0994148 -0.17044856 -0.22042578 0.20032547 0.10300613
0.0847048 0.162757 0.12718354 0.19145223 0.28133023 0.20825079 0.08843731 0.03150671
0.15617806 -0.20661871 0.2543051 0.09965191 0.16920872 -0.103956304 0.27609274 -0.036096565
-0.13956052 0.14709987 -0.18076672 -0.059598826 0.24032843 0.12625495 0.057843857 0.11245152
0.1306216 -0.09631242 -0.062466323 0.32524276 -0.09941804 0.03922378 -0.059632033 -0.23175055
-0.04027201 -0.020910403 -0.33249596 -0.26081288 -0.050981235 0.24016951 -0.13503952 0.25727162
0.26980123 -0.118992254 -0.011782299 -0.05527071 0.2897272 0.04997688 0.038970128 -0.0313728
0.04547549 -0.16450782 0.055304416 -0.07216054 -0.018615838 -0.036421355 -0.28667668 0.25774646
0.22534749 0.11678386 0.24937601 0.07155889 0.16593419 0.12062008 0.17986196 -0.17250964
0.08828618 -0.08105517 0.045370013 0.03984606 -0.23881282 -0.13422045 -0.17681155 0.05610189
0.14912729 0.07119577 0.13295004 -0.12888789 -0.014833805 0.16492656 -0.16036819 -0.2374836
-0.013475418 -0.267693 -0.026918171 -0.18557566 -0.01829537 -0.16119432 0.23802806 -0.095626116
-0.32913762 -0.19364625 -0.043001514 0.15699816 0.037500013 0.018127918 -0.27644193 0.21148555
0.13615578 -0.18317257 0.040105075 0.048024025 0.04881392 -0.25753468 -0.19398695 0.017799312
-0.18734078 -0.093931705 0.15853123 0.09127558 -0.14307305 -0.061229702 -0.04892073 0.22655146
-0.021982977 -0.24708264 0.06740421 0.15484278 -0.22467847 -0.32761988 -0.091087736 0.21492141
-0.14749306 0.14959104 0.039762557 0.039342456 -0.27802134 -0.12242435 -0.1055304 -0.012478476
-0.18454291 -0.09449065 -0.11196004 -0.1638033 0.2911289 0.08795794 0.14823611 0.18635477
0.072641924 -0.02573115 -0.21843474 -0.16196905 -0.3082289 -0.18718587 -0.12950079 0.23911288
-0.20995815 -0.2887006 -0.17916699 -0.17257859 0.1643922 -0.22120206 -0.20603052 -0.181743
0.087680265 0.025350377 -0.15558393 0.27207366 -0.086074375 -0.23597357 -0.027162392 0.0962519
0.0144052245 -0.18672256 -0.19762544 -0.09024318 0.19481702 -0.1150924 0.325164 0.023252945
0.20647457 0.08106279 0.30416775 -0.028669285 -0.050544657 -0.21115494 0.2758039 -0.09631094
-0.09859464 0.33592135 -0.15835765 -0.11689882 -0.08125862 0.20216152 0.121543474 -0.029154915
0.20181416 0.22020525 -0.11789302 0.110036954 -0.30035546 -0.24602278 0.009781794 0.04165025
-0.14144737 0.23301248 -0.30805647 0.18753138 -0.12389541 -0.01221343 0.32240275 -0.06976214
-0.12807101 0.21573167 -0.113415055 0.08823481 -0.12344339 0.07357885 -0.122999884 -0.15845194
-0.19504365 0.038216885 0.2324076 0.17145118 -0.09765121 0.189187 0.29182655 0.20152748
0.043221753 0.17231335 0.18355031 0.27659914 -0.058249094 -0.08440948 0.28166646 -0.09232055
0.15096657 0.20480801 0.0300162 -0.17727175 0.30874014 0.15264982 0.10148543 0.045965254
00000000: c37e 36be 3dd0 52be 21b0 4d3e a809 e8bd
00000010: b543 8a3e a61c 44bd e30a 66bd 6685 60be
00000020: 7496 0cbe f02f af3e c06b 69be d611 7dbe
00000030: bac3 d03d 42bd 143e 5589 fabd 9be9 cbbd
00000040: f15a 493e 0bde c9bd 636f 3b3e fd99 cbbd
00000050: 118a 2ebe 4cb7 61be 1f22 4d3e e1f4 d23d
00000060: b679 ad3d c5a9 263e 673c 023e 0e0c 443e
00000070: 840a 903e b23f 553e 9f1e b53d 2e0d 013d
00000080: 24ed 1f3e db93 53be 4734 823e 4d16 cc3d
00000090: 0d45 2d3e 0be7 d4bd 075c 8d3e fed9 13bd
000000a0: f4e8 0ebe 59a1 163e e91a 39be e61d 74bd
000000b0: a818 763e fa48 013e aeed 6c3d fc4c e63d
000000c0: abc1 053e 723f c5bd b0dc 7fbd 3886 a63e
000000d0: af9b cbbd 1da9 203d b840 74bd 0450 6dbe
000000e0: 43f4 24bd 4b4c abbc e93c aabe 4489 85be
000000f0: b3d1 50bd ffee 753e cd47 0abe 1bb9 833e
00000100: 6323 8a3e 36b2 f3bd 8b0a 41bc 8a63 62bd
00000110: 2057 943e 8fb4 4c3d 249f 1f3d c480 00bd
00000120: 8244 3a3d bd74 28be e286 623d e8c8 93bd
00000130: 3e80 98bc 8f2e 15bd 49c7 92be 58f7 833e
00000140: 7ec1 663e 602c ef3d 6d5c 7f3e 788d 923d
00000150: a7ea 293e a907 f73d bc2d 383e 5ea6 30be
00000160: 62cf b43d 4100 a6bd e8d5 393d 9f35 233d
00000170: 598b 74be 1671 09be 160e 35be 18cb 653d
00000180: d3b4 183e 16cf 913d 0e24 083e 30fb 03be
00000190: 7d09 73bc 82e2 283e 8f37 24be e72e 73be
000001a0: 00c8 5cbc 0f0f 89be 7f83 dcbc 8c07 3ebe
000001b0: 2ce0 95bc 2010 25be a1bd 733e a0d7 c3bd
000001c0: ba84 a8be 344b 46be 5b22 30bd 20c4 203e
000001d0: 9d99 193d 0081 943c cc89 8dbe ab8f 583e
000001e0: 6c6c 0b3e 9791 3bbe 3845 243d d7b4 443d
000001f0: 1bf1 473d 96db 83be 84a4 46be ddcf 913c
00000200: 43d6 3fbe 445f c0bd 0356 223e b1ee ba3d
00000210: be81 12be ffcb 7abd 1a61 48bd 1bfd 673e
00000220: a515 b4bc 3b03 7dbe 380b 8a3d 1b8f 1e3e
00000230: 1d12 66be cbbd a7be 358c babd 5c14 5c3e
00000240: 6c08 17be 652e 193e 10de 223d 8e25 213d
00000250: d058 8ebe 9eb9 fabd 5320 d8bd 8672 4cbc
00000260: d1f8 3cbe 5084 c1bd 4e4b e5bd 0dbc 27be
00000270: d90e 953e 4b23 b43d 35cb 173e c9d3 3e3e
00000280: 4ac5 943d 22ca d2bc 5bad 5fbe 37db 25be
00000290: 2ed0 9dbe a7ad 3fbe db9b 04be 02da 743e
000002a0: 45ff 56be 91d0 93be 8d77 37be 71b8 30be
000002b0: 6e56 283e cb82 62be aaf9 52be d61a 3abe
000002c0: b691 b33d 98ab cf3c 6551 1fbe 3d4d 8b3e
000002d0: c347 b0bd 0ea3 71be aa83 debc b71f c53d
000002e0: e403 6c3c 3334 3fbe 535e 4abe 6bd1 b8bd
000002f0: 1d7e 473e 90b5 ebbd e57b a63e f67c be3c
00000300: 126e 533e 3f04 a63d e0bb 9b3e d9db eabc
00000310: ea07 4fbd 0039 58be 2b36 8d3e ac3e c5bd
00000320: fdeb c9bd e2fd ab3e 8228 22be a668 efbd
00000330: eb6a a6bd 6e03 4f3e c9eb f83d 4ad6 eebc
00000340: 5fa8 4e3e 7c7d 613e e571 f1bd 0e5b e13d
00000350: 31c8 99be 65ed 7bbe d143 203c 7499 2a3d
00000360: 94d7 10be d39a 6e3e 94b9 9dbe 3a08 403e
00000370: e0bc fdbd d71a 48bc f911 a53e 74df 8ebd
00000380: 0c25 03be c3e8 5c3e 2746 e8bd 74b4 b43d
00000390: e3cf fcbd 82b0 963d 5de7 fbbd 3a41 22be
000003a0: 86b9 47be 4f89 1c3d 42fc 6d3e e690 2f3e
000003b0: 5cfd c7bd 3dba 413e 4a6a 953e 385d 4e3e
000003c0: 4b09 313d e972 303e 9df4 3b3e 679e 8d3e
000003d0: 9a96 6ebd e1de acbd 9636 903e 8e12 bdbd
000003e0: fb96 1a3e 31b9 513e 89e4 f53c ba86 35be
000003f0: 3013 9e3e 3c50 1c3e 98d7 cf3d 1046 3c3d

fc_1.0.bias f4 [128]
-0.06146055 -0.21330594 -0.15981719 0.100645214 -0.075562134 0.17798531 -0.00019123542 0.15637287
0.1713122 -0.09063157 -0.001854211 0.009186728 -0.117974795 -0.22072779 -0.10197681 0.14289805
-0.07825707 -0.2424438 0.032888237 0.096035935 0.06581846 0.19579008 -0.23007983 -0.08266854
-0.023359215 -0.19812211 0.06004594 -0.093054324 0.2231868 -0.069458485 -0.20800547 0.19383188
0.28043237 0.20665099 -0.19262002 -0.13305672 0.08869742 0.2205149 0.14483088 -0.19567016
-0.09794222 -0.030159472 0.13090964 -0.18459459 0.13843825 -0.057197157 0.08306517 -0.041064322
0.23786157 -0.024455285 -0.095653184 -0.011762055 -0.15607068 -0.23870148 0.16414094 -0.14901519
-0.13441418 -0.095974945 -0.02009333 0.14836392 -0.10533375 0.005223071 -0.114785485 0.20896871
-0.009968006 0.16405885 -0.08399432 -0.08356401 -0.10905518 -0.14373049 0.17268181 -0.20662649
0.048507303 0.23472859 -0.22147131 0.09526431 0.04343234 0.043996528 0.2534015 -0.16365902
0.14003915 -0.08643316 0.13191682 0.000293911 0.003899613 -0.22445531 0.01808478 -0.17765282
-0.2292204 0.15228203 0.02038339 -0.042505242 -0.061670985 0.17010243 0.0052207164 -0.18223235
0.2279845 -0.15208374 0.19761819 0.21650828 0.04343939 -0.22226705 -0.06919894 -0.22516136
-0.21419889 -0.16937123 -0.14759813 -0.23777561 -0.17003445 -0.17349283 -0.21992594 -0.1439135
-0.2664025 0.038618855 0.03372103 -0.043497972 0.23381425 0.13730763 0.18506412 0.1270011
-0.13435136 0.05662685 0.09340501 -0.1848747 0.23009318 -0.15902461 -0.012851871 -0.26667255
00000000: 0fbe 7bbd df6c 5abe 1ea7 23be 141f ce3d
00000010: 52c0 9abd c841 363e 5e86 48b9 3620 203e
00000020: 776c 2f3e 0b9d b9bd ff08 f3ba ee83 163c
00000030: c59c f1bd 7706 62be 38d9 d0bd de53 123e
00000040: 3e45 a0bd 3043 78be d1b5 063d 7dae c43d
00000050: d4cb 863d 327d 483e 0c9a 6bbe 204e a9bd
00000060: d35b bfbc 86e0 4abe bbf2 753d 4493 bebd
00000070: 158b 643e 4040 8ebd 63ff 54be dd7b 463e
00000080: d594 8f3e 519c 533e 2f3e 45be 0540 08be
00000090: fea6 b53d a8ce 613e 8c4e 143e c25d 48be
000000a0: ee95 c8bd ff10 f7bc 2d0d 063e 5d06 3dbe
000000b0: c2c2 0d3e 9147 6abd 121e aa3d 1033 28bd
000000c0: fc91 733e 7356 c8bc d1e5 c3bd a2b5 40bc
000000d0: fed0 1fbe 296e 74be 9014 283e 7097 18be
000000e0: dfa3 09be 838e c4bd c49a a4bc b6ec 173e
000000f0: 39b9 d7bd 4c26 ab3b a714 ebbd e5fb 553e
00000100: d950 23bc 0bff 273e 3705 acbd 9c23 abbd
00000110: 5258 dfbd 162e 13be 80d3 303e e595 53be
00000120: 98af 463d b15c 703e 60c9 62be ef19 c33d
00000130: 1ce6 313d b435 343d d7bd 813e 3b96 27be
00000140: 6c66 0f3e de03 b1bd 3415 073e 1118 9a39
00000150: a690 7f3b 9dd7 65be 8826 943c 9fea 35be
00000160: c1b8 6abe d2ef 1b3e 11fb a63c fa19 2ebd
00000170: b79a 7cbd 552f 2e3e 8b12 ab3b 1e9b 3abe
00000180: c574 693e d7bb 1bbe 6c5c 4a3e 59b4 5d3e
00000190: 80ed 313d f999 63be 2db8 8dbd b390 66be
000001a0: f456 5bbe a76f 2dbe f723 17be 737b 73be
000001b0: 831d 2ebe 1ba8 31be 4434 61be 0f5e 13be
000001c0: e965 88be ce2e 1e3d 101f 0a3d ee2a 32bd
000001d0: 016d 6f3e 5f9a 0c3e 7381 3d3e 940c 023e
000001e0: 6793 09be 8ef1 673d 204b bf3d cb4f 3dbe
000001f0: 8c9d 6b3e 59d7 22be a790 52bc 4e89 88be

fc_2.0.weight f4 [32, 128]
-0.2463245 0.03659988 -0.103933245 0.10983238 -0.0055665807 0.039549366 -0.006559528 -0.06777824
0.074545495 -0.000578226 0.07377823 0.16728882 -0.08592541 -0.022273434 0.09062763 0.060327027
0.039769195 0.118679054 0.01055188 -0.13710159 0.001821811 0.07634382 0.020659827 -0.019321378
0.025273304 -0.022391021 0.016745506 -0.039276183 0.03505644 -0.110179625 -0.022727398 -0.043084756
0.028937459 0.024888683 -0.121987 0.082781434 -0.036189027 0.13247733 -0.10666809 -0.0074137347
0.10687528 -0.02281211 -0.103142194 0.0059448476 0.026023718 0.06114818 0.14217365 -0.044961855
0.011384836 -0.08276524 -0.09362513 0.05031037 -0.04964569 -0.03742008 0.120126344 0.14940219
-0.0782036 0.01812942 0.05755625 0.009921776 -0.14913455 -0.10942128 0.09548683 -0.08322047
0.11196592 0.003250301 -0.07633422 0.16619878 0.008029913 -0.113992006 0.09549196 -0.0063113947
0.12688196 -0.008480024 -0.12388675 -0.04120654 0.07983883 -0.12774047 -0.07468326 -0.0043715034
0.026504928 0.063075274 -0.1050491 -0.072087765 0.024403395 0.06918931 -0.0059303627 0.07403818
0.06557525 -0.07517867 -0.0347174 -0.08063147 -0.07475131 -0.14375414 -0.049516197 0.102385275
0.12362987 -0.13483645 -0.0012024423 -0.1786912 0.09762199 0.050695732 -0.0137364175 0.0741011
-0.01039027 0.046311438 0.010170576 0.03174019 -0.068462364 -0.040355727 0.00799208 -0.13187818
0.13910139 0.10430377 -0.110347 0.09420444 0.124766976 0.016065074 -0.033499427 -0.24074194
-0.024691002 0.06287328 -0.012830166 0.07130522 0.057266075 -0.099653676 -0.14353797 0.006826465
-0.024708906 -0.04554509 0.08186769 0.11068688 0.21139339 0.13885327 0.07048996 -0.017908385
-0.017057609 0.0020772119 0.06635307 0.02971114 0.016596038 -0.0074620373 -0.0949436 0.0014462777
0.066534266 0.07524676 0.012575687 0.074581355 -0.047103472 0.09502122 -0.0063497885 0.043329824
0.084635496 0.06868316 0.0004269903 0.080448925 -0.06396861 0.07449468 -0.04358735 0.10085096
-0.11467902 0.026982201 -0.025195282 -0.07031303 0.034075487 0.070788406 0.08861362 -0.04471997
-0.024466226 0.07241089 -0.07433755 0.038527787 -0.12863518 -0.036269955 0.07943132 -0.01015601
0.07428781 -0.09142311 0.049234774 -0.087832004 -0.073817745 -0.08069792 -0.088804066 -0.099729314
-0.052275695 0.02117446 -0.034436226 -0.05274425 -0.0070597483 -0.008757953 0.006581655 -0.07913732
-0.055243026 0.05810903 -0.008578632 -0.0062631345 -0.032964937 6.351697e-05 0.007471256 -0.07377862
0.120316595 -0.17526473 0.06052945 -0.10213368 0.09769316 -0.12118089 -0.09819934 -0.034465685
0.13231477 -0.027133936 -0.0152062625 0.089946955 0.074346446 -0.01832559 -0.03149779 -0.0016460104
0.0070721963 -0.12948453 -0.1338842 0.09080229 -0.07395346 -0.056868386 0.058540724 0.05918163
0.15905502 -0.0770563 0.07268456 0.056292888 0.04712374 0.05195219 0.0837141 0.084075466
-0.13226385 0.062072944 0.052806735 0.0055245953 -0.0040174252 0.057693187 0.10197618 0.007579768
0.102677226 -0.060890008 0.080351956 0.042388584 0.009304251 -0.06329953 0.020596093 0.09379525
0.019120729 -0.015356456 -0.07329254 0.10261933 -0.04717222 0.059591044 -0.015987992 -0.03817205
00000000: 7d3c 7cbe c1e9 153d f4da d4bd cdef e03d
00000010: dd67 b6bb 84fe 213d 4ff1 d6bb 51cf 8abd
00000020: 4fab 983d 1794 17ba 0a19 973d c34d 2b3e
00000030: a9f9 afbd c776 b6bc fb9a b93d 7919 773d
00000040: 06e5 223d 010e f33d cbe1 2c3c 5c64 0cbe
00000050: d5c9 ee3a 265a 9c3d cc3e a93c de47 9ebc
00000060: f609 cf3c 606d b7bc df2d 893c 10e0 20bd
00000070: 5797 0f3d dba5 e1bd cf2e babc a479 30bd
00000080: 400e ed3c 5ae3 cb3c 52d4 f9bd 5089 a93d
00000090: f23a 14bd 23a8 073e cd74 dabd eaee f2bb
000000a0: 6de1 da3d 76e0 babc 373c d3bd ffcc c23b
000000b0: b12f d53c 8476 7a3d f895 113e ec29 38bd
000000c0: 7787 3a3c d280 a9bd 88be bfbd 3f12 4e3d
000000d0: 4759 4bbd cc45 19bd cd04 f63d e3fc 183e
000000e0: 3629 a0bd 2684 943c 1ac0 6b3d f28e 223c
000000f0: bab6 18be 4418 e0bd 998e c33d 7e6f aabd
00000100: 634e e53d 0003 553b 1e55 9cbd 0330 2a3e
00000110: e58f 033c a474 e9bd 4a91 c33d d1cf cebb
00000120: 58ed 013e ccef 0abc 56b8 fdbd 30c8 28bd
00000130: 8a82 a33d 66ce 02be 89f3 98bd d43e 8fbb
00000140: dd20 d93c 9c2d 813d fc23 d7bd c0a2 93bd
00000150: a1e9 c73c 20b3 8d3d 7d53 c2bb 54a1 973d
00000160: 514c 863d 46f7 99bd d533 0ebd 1d22 a5bd
00000170: 3717 99bd 4934 13be 7fd1 4abd 5faf d13d
00000180: a831 fd3d 9112 0abe 459b 9dba d3fa 36be
00000190: 0aee c73d 54a6 4f3d b60e 61bc 51c2 973d
000001a0: f33b 2abc 10b1 3d3d 7da2 263c 0002 023d
000001b0: ff35 8cbd 0c4c 25bd 37f1 023c 130b 07be
000001c0: 9870 0e3e 379d d53d 9cfd e1bd 42ee c03d
000001d0: d485 ff3d e79a 833c b236 09bd 0e85 76be
000001e0: c944 cabc b5c3 803d 9e35 52bc 7908 923d
000001f0: d58f 6a3d 3a17 ccbd 9efb 12be 8ab0 df3b
00000200: 556a cabc 7d8d 3abd 3faa a73d ceaf e23d
00000210: 8277 583e 8d2f 0e3e 0a5d 903d 9bb4 92bc
00000220: 66bc 8bbc d521 083b 1ee4 873d c764 f33c
00000230: 6af4 873c 1b84 f4bb ca71 c2bd 0791 bd3a
00000240: 1e43 883d f91a 9a3d 410a 4e3c 1cbe 983d
00000250: 92ef 40bd 7c9a c23d e311 d0bb 9d7a 313d
00000260: 6055 ad3d c2a9 8c3d abdd df39 68c2 a43d
00000270: f901 83bd ab90 983d a688 32bd f38a ce3d
00000280: d6dc eabd c709 dd3c 5666 cebc 4700 90bd
00000290: bd92 0b3d 83f9 903d 0f7b b53d 4a2c 37bd
000002a0: 656d c8bc 294c 943d 493e 98bd 50cf 1d3d
000002b0: f1b8 03be ce8f 14bd e3ac a23d 6565 26bc
000002c0: 3524 983d 0a3c bbbd 67aa 493d 44e1 b3bd
000002d0: c22d 97bd f344 a5bd e8de b5bd e23e ccbd
000002e0: 0a1f 56bd 1076 ad3c 000d 0dbd 5b0a 58bd
000002f0: 7655 e7bb 847d 0fbc ecaa d73b bf12 a2bd
00000300: 8346 62bd bc03 6e3d 648d 0cbc fb3a cdbb
00000310: 3e06 07bd 6a34 8538 70d1 f43b 3f19 97bd
00000320: 8c68 f63d 9978 33be bbed 773d 762b d1bd
00000330: 5a13 c83d b02d f8bd bc1c c9bd e42b 0dbd
00000340: 867d 073e fd47 debc b023 79bc 1c36 b83d
00000350: f342 983d 8c1f 96bc d403 01bd f2be d7ba
00000360: e2bd e73b 9897 04be f118 09be 8df6 b93d
00000370: e974 97bd d3ee 68bd 66c8 6f3d 7068 723d
00000380: 52df 223e b2cf 9dbd a5db 943d 5f93 663d
00000390: d304 413d d2cb 543d 4c72 ab3d c22f ac3d
000003a0: 2d70 07be 3340 7e3d e04b 583d aa07 b53b
000003b0: 9ba4 83bb b14f 6c3d e3d8 d03d b45f f83b
000003c0: 7048 d23d cd67 79bd 918f a43d a79f 2d3d
000003d0: db70 183c 2fa3 81bd 23b9 a83c b917 c03d
000003e0: 13a3 9c3c a599 7bbc 661a 96bd 152a d23d
000003f0: a837 41bd bd15 743d 40f9 82bc 4c5a 1cbd

fc_2.0.bias f4 [32]
-0.02216664 -0.058205225 0.09515475 0.062291276 -0.08141016 -0.06882236 0.05662798 -0.05919828
0.036421973 0.014045014 -0.043671247 0.041430905 0.027082345 0.0091082 -0.10138128 -0.002567276
0.03725659 0.03875701 -0.003562049 -0.10780316 -0.027490748 0.08768192 0.05254203 0.017256958
-0.07030131 -0.02271621 0.034017544 -0.08732281 0.007121663 0.009749163 0.0029099756 0.04482613
00000000: d096 b5bc 9a68 6ebd 7ee0 c23d 2325 7f3d
00000010: 5fba a6bd bdf2 8cbd bef2 673d e579 72bd
00000020: 352f 153d 0f1d 663c 9fe0 32bd 74b3 293d
00000030: cbdb dd3c 8f3a 153c fda0 cfbd be3f 28bb
00000040: 5e9a 183d acbf 1e3d 4471 69bb e7c7 dcbd
00000050: 4734 e1bc 9492 b33d 5036 573d 775e 8d3c
00000060: 22fa 8fbd 5817 babc fb55 0b3d 4dd6 b2bd
00000070: d75c e93b f4ba 1f3c 4ab5 3e3b 9b9b 373d

classifier.0.weight f4 [6, 32]
0.022670543 0.18616892 -0.21592069 -0.16682445 -0.07159267 0.14763442 -0.20551312 0.14995097
-0.1682769 -0.12021474 0.24220546 0.21967247 0.099849455 -0.052265506 0.20757574 0.0026034457
0.15082197 0.10969844 -0.0036504988 0.2272975 0.11470486 0.21958321 0.2162144 0.03620605
-0.08744014 -0.10145342 -0.0091404775 -0.09377765 0.046489198 0.24449062 0.25519252 0.068090394
0.12907757 -0.07515956 0.11852852 0.16170737 0.0023731291 -0.04346618 0.1973851 -0.18553804
0.14283717 -0.01172068 -0.13663313 0.05441031 -0.07476037 0.0063931504 -0.11864143 -0.10923971
-0.091033235 -0.21495649 0.13393794 0.042514436 0.038266186 0.21829492 -0.078514054 -0.14088751
-0.06862337 -0.06460257 6.41602e-05 0.083649054 -0.034797877 0.022995219 -0.09610588 -0.19349986
0.021072723 0.072392344 -0.08204324 -0.087003775 -0.07855358 -0.16898273 0.19118182 0.13341638
-0.12747645 -0.21161695 0.19725192 0.13141675 -0.16162755 0.06891988 -0.09914677 -0.15359442
-0.1551103 0.0070867497 0.19692889 0.098678894 -0.13740183 0.13063596 0.1723997 0.108662196
0.19771148 -0.12722039 -0.068469495 0.12551157 -0.1706607 -0.05441605 0.20538686 0.051708844
-0.0779597 0.08377055 -0.048226897 -0.103831194 0.115216024 -0.14195734 0.15416867 0.09645131
0.17173806 0.22958207 -0.013680995 -0.11233248 -0.21065295 -0.034495972 -0.20265552 0.13025631
0.022569489 -0.11816591 -0.010591236 0.14980322 -0.14236864 0.00044595427 -0.020419324 -0.004291557
-0.016297046 0.078085594 -0.043461796 -0.21401429 0.0155858835 -0.15023656 -0.17898776 -0.033404827
0.06232882 -0.14155054 -0.18330826 0.13471831 -0.09015948 0.113725714 0.005673803 -0.0034837497
-0.13267095 -0.121541135 -0.19120201 0.20084448 0.06319531 -0.14812368 -0.072669424 0.14259304
-0.08061413 0.13972029 -0.07186378 -0.27413535 0.20013636 0.017185215 0.12870048 -0.07154118
-0.22247742 0.1666443 -0.22534789 0.21171175 0.22569405 0.02190426 -0.28937972 0.21075955
-0.29909468 -0.16388123 -0.16407858 0.20611444 0.31134164 -0.090610676 -0.17488682 0.22743875
0.046755243 0.20382915 -0.17987776 0.2281062 -0.05828778 -0.14324391 0.012401065 0.0042182743
0.21035221 -0.051788755 -0.18181197 0.031465277 -0.21543263 -0.23847316 0.047664437 0.2764795
-0.16287214 0.16779402 -0.15716381 -0.05624312 0.24221009 0.13142118 -0.014821852 -0.077147394
00000000: 93b7 b93c 11a3 3e3e 501a 5dbe 07d4 2abe
00000010: 2e9f 92bd 7a2d 173e 0872 52be bf8c 193e
00000020: c850 2cbe 2533 f6bd b504 783e d2f1 603e
00000030: df7d cc3d 5b14 56bd bc8e 543e 929e 2a3b
00000040: 1371 1a3e 93a9 e03d 353d 6fbb adc0 683e
00000050: 62ea ea3d 6cda 603e 4f67 5d3e cc4c 143d
00000060: d113 b3bd d0c6 cfbd f1c1 15bc 7f0e c0bd
00000070: 756b 3e3d c05b 7a3e 98a8 823e fa72 8b3d
00000080: e92c 043e 41ed 99bd 15bf f23d 9e96 253e
00000090: 8086 1b3b 9809 32bd 521f 4a3e affd 3dbe
000000a0: e843 123e 1808 40bc 8ee9 0bbe 58dd 5e3d
000000b0: f71b 99bd a27d d13b 47fa f2bd 12b9 dfbd
000000c0: a26f babd 8e1d 5cbe 0727 093e 9e23 2e3d
000000d0: 01bd 1c3d b488 5f3e facb a0bd d144 10be
000000e0: 698a 8cbd 5a4e 84bd bf8d 8638 3250 ab3d
000000f0: 3888 0ebd 7860 bc3c 29d3 c4bd d424 46be
00000100: b4a0 ac3c 7042 943d 4906 a8bd 092f b2bd
00000110: b3e0 a0bd cf09 2dbe 2bc5 433e 4e9e 083e
00000120: 3089 02be 1db2 58be 68fc 493e 1d92 063e
00000130: b181 25be de25 8d3d 760d cbbd db47 1dbe
00000140: 3cd5 1ebe f737 e83b baa7 493e 2918 ca3d
00000150: 11b3 0cbe 6fc5 053e 8c89 303e 498a de3d
00000160: e174 4a3e 1046 02be bc39 8cbd 1b86 003e
00000170: aec1 2ebe 5de3 5ebd ef50 523e a7cc 533d
00000180: 56a9 9fbd e58f ab3d 9189 45bd 73a5 d4bd
00000190: 61f6 eb3d 445d 11be 64de 1d3e 4488 c53d
000001a0: 1adc 2f3e 9017 6b3e 4126 60bc 920e e6bd
000001b0: 68b5 57be a64b 0dbd ee84 4fbe e961 053e
000001c0: a6e3 b83c f800 f2bd dd86 2dbc 0466 193e
000001d0: 16c9 11be f8ce e939 6d46 a7bc 30a0 8cbb
000001e0: 6281 85bc 57eb 9f3d ff04 32bd 9026 5bbe
000001f0: ef5b 7f3c 9dd7 19be 9148 37be 80d3 08bd
00000200: 814c 7f3d a0f2 10be 29b5 3bbe 99f3 093e
00000210: 89a5 b8bd 07e9 e83d 4feb b93b 9f4f 64bb
00000220: e5da 07be 8fea f8bd 76ca 43be 2daa 4d3e
00000230: 8b6c 813d bcad 17be b5d3 94bd e903 123e
00000240: 0519 a5bd d612 0f3e 512d 93bd 785b 8cbe
00000250: 8cf0 4c3e 02c8 8c3c 0fca 033e 2f84 92bd
00000260: 1fd1 63be cea4 2a3e 99c1 66be f7ca 583e
00000270: 571c 673e 9070 b33c 9429 94be 5ad1 573e
00000280: f022 99be 7bd0 27be 3704 28be aa0f 533e
00000290: 2c68 9f3e 1792 b9bd 8815 33be b4e5 683e
000002a0: 6d82 3f3d 97b8 503e e031 38be ac94 693e
000002b0: 2bbf 6ebd 88ae 12be d62d 4b3c 7339 8a3b
000002c0: 9266 573e 7220 54bd eb2c 3abe bce1 003d
000002d0: 5f9a 5cbe 4f32 74be c93b 433d b98e 8d3e
000002e0: f4c7 26be 32d2 2b3e 8def 20be 305f 66bd
000002f0: ec05 783e 4693 063e 5ad7 72bc 74ff 9dbd

classifier.0.bias f4 [6]
0.02245954 0.1124955 0.11080517 0.03853368 -0.058845025 0.052514493
00000000: 12fd b73c 0a64 e63d d2ed e23d 7ed5 1d3d
00000010: 7b07 71bd 7019 573d

onnx::LSTM_303 f4 [1, 64, 30]
0.1902173 0.19790514 -0.06411494 0.21678685 -0.076750435 0.02029599 -0.1840884 0.071734644
0.15290122 -0.25826937 0.19624095 0.0142711615 0.1660597 -0.07067147 0.12619926 -0.0773734
0.19107002 -0.002643336 -0.11828991 0.054577235 -0.11747009 -0.025252275 -0.115727335 0.118829966
-0.21637039 -0.11995239 -0.09093304 -0.15339409 -0.020437375 -0.23277675 0.11329297 -0.24689247
0.1396827 -0.0107686 -0.090447605 0.1246937 0.031513784 0.18845408 0.010909075 -0.08648835
0.056841083 -0.038544286 0.08772038 0.20459817 0.13721398 -0.15541586 0.15262961 -0.0053229053
0.09645634 -0.17180848 -0.22762874 -0.1123228 -0.16596127 0.19662604 0.09407421 0.12034864
0.10152187 -0.0135991955 0.20229149 -0.17491658 0.03168085 -0.14039697 0.11356615 -0.041192543
0.061005898 0.0198149 0.2604847 -0.05634285 -0.12580775 -0.087630294 0.2296284 0.09102999
0.22207849 -0.15757523 -0.23695381 -0.10258241 -0.18288894 0.17938869 0.11862464 0.25173774
-0.1393073 -0.1288706 0.14965455 -0.11496034 0.10087749 -0.04965873 0.17514718 -0.20989506
-0.16706477 0.12515149 0.07570365 0.01800582 0.21428104 0.20540634 -0.12590587 -0.09339142
0.25040242 -0.08680261 -0.07884644 -0.18940726 -0.10719599 0.060623594 -0.032559745 -0.08944637
0.049480293 -0.188811 -0.16650411 -0.15191576 -0.16913334 -0.13843282 0.2644814 0.06246001
0.0938175 -0.2517492 -0.1382422 -0.03409475 0.09283231 -0.1830744 -0.099128686 -0.11024549
0.041344684 -0.05492435 -0.0049351407 -0.12491798 -0.09767688 -0.13019572 -0.16571972 -0.19271602
0.26135164 -0.0048198774 0.1700537 0.1650392 -0.16042538 0.19177875 -0.04133648 -0.10698997
-0.16051227 -0.28038484 0.077785425 -0.05964004 0.09060637 -0.20984212 0.23329903 -0.19782096
-0.06456685 0.055280708 0.14981253 0.20225422 0.1724495 -0.15924992 0.07768788 -0.07559012
0.06457958 -0.14722003 0.27217793 -0.09427369 0.22671494 0.0767036 0.1372831 -0.07806633
0.24978274 -0.026013238 0.067415334 -0.19225562 0.16233599 -0.021961065 -0.04704245 0.25012785
0.058610793 -0.08286964 -0.045328747 0.08229771 0.20243405 0.021678943 -0.104821764 0.017266687
-0.08381261 0.15265772 0.3167894 -0.15797527 0.18164834 0.08066207 0.044012852 -0.11633121
0.17050032 0.09881542 0.10023471 -0.04577633 -0.09764951 0.011216165 0.010774738 -0.047902517
0.1951087 0.24068941 0.0022569837 -0.031371716 0.045000724 0.0099265175 0.08948384 0.095758095
-0.17401743 -0.059488993 0.20801464 0.12080233 0.02137694 -0.04632364 -0.11689932 -0.16027807
-0.01214919 0.20281613 0.18882045 0.06874463 -0.19027743 -0.15913464 -0.018743398 0.18574944
0.086844474 -0.041679036 0.078629754 -0.1240757 -0.011866135 0.24384215 -0.05665179 -0.055725023
-0.200398 0.1562326 0.20306692 0.070109285 -0.13592081 -0.28030178 -0.17985883 0.14113955
0.15813163 0.15378927 0.14751099 0.018187588 0.021078087 -0.2391299 -0.18628563 -0.24602215
0.12921356 -0.08580795 -0.007078768 -0.101927795 -0.04420903 -0.13123986 -0.13069937 0.06462123
-0.06012212 0.13456723 -0.09342843 -0.19267635 -0.07009107 -0.17793928 -0.04194928 -0.21400799
00000000: 53c8 423e a5a7 4a3e b24e 83bd 5ffd 5d3e
00000010: 552f 9dbd c743 a63c ab81 3cbe 9de9 923d
00000020: 2392 1c3e e23b 84be 63f3 483e 97d1 693c
00000030: 8e0b 2a3e 34bc 90bd 613a 013e f275 9ebd
00000040: dca7 433e d23b 2dbb fb41 f2bd 618c 5f3d
00000050: 2994 f0bd dcdd cebc 7402 edbd 205d f33d
00000060: 3390 5dbe 99a9 f5bd 1a3b babd 5713 1dbe
00000070: 486c a7bc 075d 6ebe 2506 e83d 61d1 7cbe
00000080: fb08 0f3e c86e 30bc 983c b9bd 695f ff3d
00000090: 9914 013d 1bfa 403e fabb 323c ce20 b1bd
000000a0: 32d2 683d 9de0 1dbd bea6 b33d 2f82 513e
000000b0: d281 0c3e 5625 1fbe f04a 1c3e c46b aebb
000000c0: e78a c53d 90ee 2fbe 8217 69be 7f09 e6bd
000000d0: c0f1 29be 5658 493e fba9 c03d 5979 f63d
000000e0: b3ea cf3d 29cf 5ebc 8025 4f3e 551d 33be
000000f0: c7c3 013d 39c4 0fbe 5f95 e83d 83b9 28bd
00000100: 52e1 793d db52 a23c 405e 853e c3c7 66bd
00000110: bfd3 00be 8377 b3bd b523 6b3e ee6d ba3d
00000120: 8b68 633e 675b 21be 05a4 72be ba16 d2bd
00000130: 3d47 3bbe abb1 373e 7af1 f23d c5e3 803e
00000140: 93a6 0ebe a8f6 03be 0b3f 193e 5470 ebbd
00000150: dc98 ce3d f466 4bbd c859 333e bbee 56be
00000160: 0713 2bbe b627 003e 840a 9b3d f180 933c
00000170: 7d6c 5b3e 0a56 523e 78ed 00be 0044 bfbd
00000180: bf34 803e 91c5 b1bd 3e7a a1bd faf3 41be
00000190: 9289 dbbd 7250 783d 5e5d 05bd a92f b7bd
000001a0: d9ab 4a3d ac57 41be 0e80 2abe ce8f 1bbe
000001b0: 4a31 2dbe 55c1 0dbe 1b6a 873e 11d6 7f3d
000001c0: 6423 c03d 45e5 80be 5d8f 0dbe f0a6 0bbd
000001d0: de1e be3d db77 3bbe fb03 cbbd 63c8 e1bd
000001e0: 0b59 293d 5bf8 60bd f6b6 a1bb ffd4 ffbd
000001f0: d10a c8bd 0752 05be 6eb2 29be 5957 45be
00000200: e2cf 853e 10f0 9dbb 8f22 2e3e 0900 293e
00000210: 8d46 24be a661 443e 7150 29bd 8f1d dbbd
00000220: 545d 24be 9a8e 8fbe f74d 9f3d 1d49 74bd
00000230: d58f b93d dae0 56be f1e5 6e3e 9491 4abe
00000240: a03b 84bd 066e 623d 7568 193e bb1b 4f3e
00000250: 9a96 303e 6912 23be d31a 9f3d fece 9abd
00000260: 4d42 843d d9c0 16be e85a 8b3e 9012 c1bd
00000270: f627 683e c716 9d3d f193 0c3e 3de1 9fbd
00000280: 0cc7 7f3e b719 d5bc 0d11 8a3d a8de 44be
00000290: 683b 263e b1e7 b3bc 96af 40bd c210 803e
000002a0: df11 703d 8fb7 a9bd a3aa 39bd b48b a83d
000002b0: df4a 4f3e 0a98 b13c cbac d6bd de72 8d3c
000002c0: f2a5 abbd 4e52 1c3e 3832 a23e 45c4 21be
000002d0: 0602 3a3e 2832 a53d d246 343d 0f3f eebd
000002e0: a397 2e3e bd5f ca3d db47 cd3d f67f 3bbd
000002f0: 77fc c7bd 01c4 373c 8788 303c 6e35 44bd
00000300: 93ca 473e 4977 763e e7e9 133b a17f 00bd
00000310: ae52 383d d5a2 223c 4e43 b73d d21c c43d
00000320: a031 32be bbaa 73bd ca01 553e 3667 f73d
00000330: b11e af3c dbbd 3dbd e968 efbd ef1f 24be
00000340: 650d 47bc 08af 4f3e 265a 413e fcc9 8c3d
00000350: 16d8 42be 31f4 22be c18b 99bc 1a35 3e3e
00000360: 84db b13d a3b7 2abd a308 a13d 671b febd
00000370: 2d6a 42bc c2b1 793e b50b 68bd ec3f 64bd
00000380: 2235 4dbe 70fb 1f3e c6f0 4f3e 7595 8f3d
00000390: d32e 0bbe b783 8fbe ea2c 38be e386 103e
000003a0: 42ed 213e ef7a 1d3e 1f0d 173e 23fe 943c
000003b0: f4ab ac3c 78de 74be a9c1 3ebe 3bed 7bbe
000003c0: 8f50 043e 14bc afbd 03f5 e7bb 85bf d0bd
000003d0: 8714 35bd be63 06be 0ed6 05be 2358 843d
000003e0: 9d42 76bd fecb 093e 6857 bfbd f34c 45be
000003f0: e88b 8fbd b735 36be 02d3 2bbd e924 5bbe

onnx::LSTM_304 f4 [1, 64, 16]
-0.24620923 -0.051135045 -0.092930555 -0.10129788 0.1294979 0.13888644 0.11831151 -0.075641975
0.06274002 0.22716874 -0.27164543 -0.119788975 -0.17909402 0.14453799 -0.06151872 -0.22442237
0.17446096 -0.15936121 0.30881083 0.013443818 0.14526577 -0.029418074 -0.02576733 0.037940565
0.09796978 -0.038494125 -0.27755073 -0.18307813 0.11640155 -0.14246342 -0.11608756 -0.104992524
-0.19591637 0.044881344 -0.19449666 0.043804184 -0.3010877 0.10182217 0.13540718 0.046466723
-0.015713543 0.023481721 -0.15030843 -0.13409184 -0.13828444 -0.08223865 -0.04469065 0.14505889
-0.009293513 0.07340648 0.12494559 0.04720449 -0.1343588 -0.22815742 -0.07497781 0.06430463
-0.24604188 -0.067529835 0.11168727 0.25693557 0.15068989 0.09045469 0.14260992 0.11231253
0.06804299 -0.06591111 -0.16032062 -0.09017917 -0.036079485 0.046579942 -0.0023723335 0.12811613
0.11170093 -0.062283657 -0.2468392 -0.20029435 -0.1576908 0.09174387 -0.1445715 -0.05234038
-0.14124368 -0.1421168 0.22322814 -0.014772629 -0.099211484 -0.23363021 0.03555683 -0.02448797
-0.012132268 -0.08128712 0.097182915 0.06863325 -0.115938835 -0.31200132 -0.096892506 -0.12780619
0.23481198 -0.16558723 -0.08367799 0.09483301 0.07859581 -0.004220519 0.30183336 -0.13566548
0.0028531204 -0.004079234 -0.13117135 0.0019938834 0.03264664 -0.033943266 0.14245796 0.17563714
0.036918018 -0.15685059 -0.15387225 -0.096957326 -0.05834052 -0.2975684 0.0007609467 0.21108378
0.19766802 -0.28260067 -0.104689 -0.07763839 -0.04324439 -0.043242373 -0.08303595 0.39345664
0.20982358 0.02723806 -0.038111046 0.14796646 0.16997227 -0.22445336 -0.18567517 0.10513961
0.006635626 0.054411262 -0.109213546 -0.2209959 -0.11008209 -0.16940185 0.02425015 0.018146375
0.32757622 -0.07954474 -0.0068664756 -0.0051688505 0.16091956 -0.18468802 -0.22244318 0.24784751
0.04055395 0.11258822 0.16523427 0.11358654 0.054558646 0.04260279 -0.11204226 0.3476276
-0.15297878 0.15249528 -0.07695048 0.015036571 0.038103927 0.14903732 -0.21992762 -0.12526843
0.1618417 -0.121984005 0.12062729 0.02234994 -0.029352922 0.13920045 -0.17040747 -0.10707021
0.1391689 0.047594536 0.068805605 -0.14563279 0.19392231 0.02361681 -0.052935366 -0.21710671
-0.032960348 0.016665498 0.017545888 0.23593624 0.027061617 -0.062271073 0.13049313 -0.001233998
-0.051613603 0.13636 0.17063695 0.0540716 0.09801007 0.15162627 0.110921144 -0.016057108
0.08186256 0.056460653 0.21586607 0.16474433 0.08161343 -0.119318165 0.24999651 -0.2341638
0.1319493 0.20412105 0.09594148 -0.17504583 -0.20093487 0.23410246 -0.105501115 0.04060325
0.05595805 -0.37033245 -0.08588876 -0.22861856 0.18748249 -0.10543081 0.24885747 0.020773934
0.11836215 0.13155536 0.03828502 -0.09716928 0.04956006 0.011433806 0.038608782 -0.16186891
-0.08907946 -0.113010176 0.28630334 0.16247511 0.15242092 0.025749652 -0.20749679 -0.022079155
-0.12890384 -0.123360656 0.40471083 0.11068745 0.27918792 0.06465673 -0.12914264 -0.15907425
0.08378138 0.2901126 0.106941864 -0.049323335 -0.13438457 -0.07652082 0.15071866 -0.11048187
00000000: 461e 7cbe fb72 51bd 6052 bebd 4375 cfbd
00000010: 199b 043e 3f38 0e3e 4e4d f23d 2eea 9abd
00000020: d77d 803d ec9e 683e 1c15 8bbe ec53 f5bd
00000030: 6c64 37be c401 143e 0efb 7bbd face 65be
00000040: e5a5 323e 962f 23be 741c 9e3e 7643 5c3c
00000050: 8dc0 143e 2cfe f0bc 0216 d3bc 9167 1b3d
00000060: 61a4 c83d 04ac 1dbd 211b 8ebe d578 3bbe
00000070: f063 ee3d eee1 11be 51bf edbd 5206 d7bd
00000080: 4d9e 48be 80d5 373d 222a 47be 046c 333d
00000090: 2b28 9abe 2488 d03d 2ea8 0a3e e453 3e3d
000000a0: b0b9 80bc bd5c c03c 74ea 19be 5f4f 09be
000000b0: 709a 0dbe bd6c a8bd 8b0d 37bd 518a 143e
000000c0: d243 18bc 2356 963d 79e3 ff3d 7f59 413d
000000d0: 5a95 09be 19a2 69be f78d 99bd 25b2 833d
000000e0: 67f2 7bbe 154d 8abd 4cbc e43d 0f8d 833e
000000f0: 734e 1a3e 4f40 b93d 5608 123e 1d04 e63d
00000100: 205a 8b3d 67fc 86bd 172b 24be dbaf b8bd
00000110: 15c8 13bd 9cca 3e3d 2779 1bbb e030 033e
00000120: 75c3 e43d 261d 7fbd 6ac3 7cbe f619 4dbe
00000130: b279 21be 36e4 bb3d 8d0a 14be de62 56bd
00000140: 2fa2 10be 1187 11be eb95 643e e608 72bc
00000150: 642f cbbd c23c 6fbe 0aa4 113d ff9a c8bc
00000160: 6cc6 46bc dd79 a6bd d607 c73d 978f 8c3d
00000170: 5771 edbd a3be 9fbe 946f c6bd a0df 02be
00000180: 8d72 703e b38f 29be 5e5f abbd cf37 c23d
00000190: d7f6 a03d 484c 8abb e789 9a3e e4eb 0abe
000001a0: 6bfb 3a3b 18ab 85bb c851 06be d0ab 023b
000001b0: 7cb8 053d 1808 0bbd 80e0 113e 39da 333e
000001c0: 5937 173d 719d 20be b090 1dbe 9091 c6bd
000001d0: 78f6 6ebd e35a 98be 457a 473a 5926 583e
000001e0: 7c69 4a3e 09b1 90be 3067 d6bd e000 9fbd
000001f0: 0821 31bd ea1e 31bd c10e aabd 2673 c93e
00000200: fedb 563e 5a22 df3c 541a 1cbd 8584 173e
00000210: 360d 2e3e 1ad7 65be a221 3ebe 7053 d73d
00000220: aa6f d93b 58de 5e3d 5aab dfbd c04c 62be
00000230: b872 e1bd ae77 2dbe 40a8 c63c b5a7 943c
00000240: 12b8 a73e 5ae8 a2bd 2c00 e1bb 765f a9bb
00000250: 19c8 243e db1e 3dbe 25c8 63be bdcb 7d3e
00000260: e61b 263d a794 e63d 2c33 293e 0fa0 e83d
00000270: e378 5f3d 4380 2e3d 6a76 e5bd 3ffc b13e
00000280: 78a6 1cbe b927 1c3e 3798 9dbd f35b 763c
00000290: dd12 1c3d 3d9d 183e b534 61be 5e46 00be
000002a0: d5b9 253e c0d2 f9bd 710b f73d 3917 b73c
000002b0: 8a75 f0bc 908a 0e3e 4c7f 2ebe a047 dbbd
000002c0: 4b82 0e3e 7df2 423d f4e9 8c3d c320 15be
000002d0: 9293 463e 0a78 c13c c1d2 58bd 3951 5ebe
000002e0: 6e01 07bd 1586 883c 65bc 8f3c 4599 713e
000002f0: 53b0 dd3c f40f 7fbd fe9f 053e 1abe a1ba
00000300: c968 53bd f5a1 0b3e 74bb 2e3e 2f7a 5d3d
00000310: 81b9 c83d eb43 1b3e a02a e33d 328a 83bc
00000320: 8fa7 a73d 4943 673d ff0b 5d3e bdb2 283e
00000330: f124 a73d 155d f4bd 16ff 7f3e a3c8 6fbe
00000340: b81d 073e 1c05 513e f77c c43d 373f 33be
00000350: dfc1 4dbe 8eb8 6f3e f810 d8bd 984f 263d
00000360: 4534 653d 379c bdbe 72e6 afbd fc1a 6abe
00000370: 69fb 3f3e 1cec d7bd 7ed4 7e3e 192e aa3c
00000380: db67 f23d 73b6 063e c1d0 1c3d b000 c7bd
00000390: 7dff 4a3d dc54 3b3c 3e24 1e3d f7c0 25be
000003a0: 4b6f b6bd e171 e7bd 5a96 923e e05f 263e
000003b0: 3b14 1c3e eff0 d23c 0a7a 54be 58df b4bc
000003c0: 5eff 03be 83a4 fcbd 4236 cf3e 1ab0 e23d
000003d0: b8f1 8e3e bf6a 843d f83d 04be 5ce4 22be
000003e0: 9295 ab3d a489 943e 5604 db3d 4407 4abd
000003f0: 1c9c 09be f3b6 9cbd fe55 1a3e 5244 e2bd

onnx::LSTM_305 f4 [1, 128]
0.117297694 -0.008273139 -0.10431858 0.24248642 0.09015444 0.30734703 0.21874127 -0.038739063
0.21253265 0.31742752 -0.11451464 0.15105453 -0.16674468 -0.22886235 0.102367334 -0.055874735
0.10761139 0.019393923 0.079607435 -0.06869576 -0.14590074 0.21778326 -0.20875381 0.07748866
0.21878864 0.20963977 0.17963323 -0.13088243 -0.033506356 -0.051198497 -0.01207493 0.21567304
-0.06665218 -0.19611381 0.16511597 0.29514566 -0.050347436 -0.09905694 -0.0070525417 -0.15010794
-0.14279756 0.018664708 0.22005144 -0.14695892 0.026467618 -0.16199178 -0.10577329 -0.017659534
0.037208088 -0.13744643 0.28001434 0.21414968 0.22946632 -0.021031275 0.061264098 0.16216113
-0.27323344 0.12570558 0.20845331 -0.0992012 0.0343815 -0.26477247 -0.2997745 -0.009716475
-0.16377312 -0.20046589 -0.28440005 0.20609447 -0.0077603264 0.31775945 0.07248962 -0.107687004
0.120369695 0.41971263 0.21759208 0.1068314 -0.2245885 -0.22982103 0.26507118 -0.19140956
0.10017436 -0.047268793 -0.23372893 0.23168074 0.08850703 0.26713532 -0.09368825 0.14527166
-0.053142305 -0.037577566 0.23884009 -0.13231519 0.118316285 0.15073061 -0.08862866 0.15196535
0.056157973 -0.06549334 0.11237001 0.06380226 -0.18495755 -0.030824827 0.21741131 0.09526942
0.18427604 -0.023702908 0.2608139 -0.014293654 -0.017718159 0.017350284 0.011508315 -0.059498042
0.016016155 -0.109832525 -0.04486349 0.19952385 -0.16755484 0.034388654 0.26639298 0.06695715
-0.17231056 -0.23045923 0.20677686 0.21007417 0.25636795 -0.05352563 0.0010121416 0.2293083
00000000: c639 f03d 0f8c 07bc fba4 d5bd 5c4e 783e
00000010: e4a2 b83d 975c 9d3e b6fd 5f3e daac 1ebd
00000020: 29a2 593e dc85 a23e a786 eabd 0aae 1a3e
00000030: 1ebf 2abe e45a 6abe f7a5 d13d e8dc 64bd
00000040: 5c63 dc3d 01e0 9e3c 3909 a33d 5db0 8cbd
00000050: 0167 15be 9302 5f3e 8fc3 55be 60b2 9e3d
00000060: 210a 603e cfab 563e c6f1 373e 0b06 06be
00000070: f63d 09bd 84b5 51bd edd5 45bc 65d9 5c3e
00000080: f080 88bd 0fd2 48be 2914 293e 551d 973e
00000090: 1d39 4ebd 5dde cabd 0219 e7bb e5b5 19be
000000a0: 8639 12be bbe6 983c 2a55 613e 667c 16be
000000b0: 9ed2 d83c 2ce1 25be ab9f d8bd baaa 90bc
000000c0: 8267 183d c2be 0cbe 0a5e 8f3e 0e4a 5b3e
000000d0: 38f9 6a3e c849 acbc 10f0 7a3d 910d 263e
000000e0: 41e5 8bbe f7b8 003e c974 553e 002a cbbd
000000f0: 9ed3 0c3d 4290 87be 0b7c 99be da31 1fbc
00000100: 24b4 27be ee46 4dbe e29c 91be 6e0a 533e
00000110: 564a febb 5eb1 a23e 7075 943d 018b dcbd
00000120: 6384 f63d 93e4 d63e 75d0 5e3e 6cca da3d
00000130: 87fa 65be 3456 6bbe 69b7 873e de00 44be
00000140: 3728 cd3d ec9c 41bd a356 6fbe b73d 6d3e
00000150: 2c43 b53d f6c5 883e a0df bfbd 18c2 143e
00000160: bfab 59bd efea 19bd 7f92 743e a27d 07be
00000170: cf4f f23d 2059 1a3e f182 b5bd ce9c 1b3e
00000180: e705 663d 5f21 86bd 3f22 e63d c2aa 823d
00000190: 8365 3dbe 5984 fcbc 12a1 5e3e 9d1c c33d
000001a0: dcb2 3c3e 9a2c c2bc 6689 853e ee2f 6abc
000001b0: ac25 91bc 2f22 8e3c 5f8d 3c3c 38b4 73bd
000001c0: 5034 833c e0ef e0bd c7c2 37bd fb4f 4c3e
000001d0: 7f93 2bbe 1edb 0c3d a964 883e d520 893d
000001e0: 2e72 30be 81fd 6bbe 50bd 533e af1d 573e
000001f0: a942 833e b13d 5bbd d6a9 843a cccf 6a3e

onnx::LSTM_325 f4 [1, 128, 16]
0.021718578 -0.077061795 -0.086270034 -0.08199524 0.06930302 -0.006875782 -0.013557412 -0.104427055
0.08155099 0.007673388 0.032591708 -0.05986086 -0.008177466 0.13003793 -0.032411262 0.219621
0.09959632 0.049055383 0.13159688 -0.027073313 0.0009814602 0.046782456 0.14057234 0.09801292
-0.06328128 0.2278456 -0.11221291 0.12813196 0.07173229 0.09261404 -0.23592182 0.0054229605
0.1075522 0.07839776 -0.054107353 0.21041705 0.02819459 -0.19502704 -0.11106394 0.06445478
0.114166155 0.18659762 -0.051251937 -0.025162498 -0.11691114 0.2241967 -0.092880696 -0.070810206
0.06043979 -0.09393974 -0.016824214 0.05233408 0.2723682 -0.14828853 -0.07003199 -0.024006613
0.12588264 0.12864609 0.11301122 0.15249157 0.19273643 0.07720462 -0.12220824 -0.0147182895
0.09500578 -0.05856744 -0.0737779 0.022729797 -0.13688086 -0.14832245 -0.2785946 -0.11355883
0.12441067 0.0047869943 0.19151326 -0.11674133 -0.059452 -0.13377067 -0.05042234 0.109339364
-0.044432756 0.051889006 -0.11146267 0.20450345 0.037233435 0.081810735 0.1495823 -0.05512371
0.02060496 0.16944303 -0.09844676 0.045885753 -0.102409504 0.30564082 -0.18784162 -0.014311867
0.23154126 -0.08449765 0.12514587 0.25311685 0.11689824 -0.21212892 -0.024840498 -0.116046935
0.05621917 -0.061688 0.15228587 0.096462965 -0.084203176 -0.17079027 0.043827437 -0.0121516315
0.1591415 0.002873719 0.014458129 0.020964058 -0.008341831 -0.053945392 -0.16843057 0.122303225
-0.09290814 0.16064647 -0.0009750617 0.13506876 0.15939376 -0.037147406 0.11298736 0.00703524
-0.02786836 0.037505418 0.0026503687 0.21085085 -0.1827643 0.1279422 0.01664385 0.21699353
0.14503874 -0.11217256 0.13699539 0.21606249 -0.16664848 -0.049027357 0.06985428 0.22450227
0.14452115 0.093226455 -0.09361842 0.0526605 -0.067742124 0.0024739003 0.015511294 -0.14398775
0.03562585 -0.13398238 -0.100853756 0.25546584 -0.07146351 0.023045126 -0.10247417 0.024018452
0.078465946 0.104720205 -0.07010676 0.18611336 0.19197398 0.09883879 -0.14577723 -0.06263353
-0.13820645 0.05483997 -0.0074791736 0.033679415 0.17652799 0.11952201 -0.15539706 -0.10168307
0.13916317 0.041346423 -0.002686429 -0.12642638 -0.035122868 -0.00083153235 -0.15032454 0.13483731
0.1946272 -0.07183995 -0.079868026 -0.049248468 0.0019408067 -0.08865415 0.12861878 -0.07275395
-0.0071885 -0.14260508 0.005956344 -0.002497719 -0.019243328 0.14833185 -0.20348331 0.09878912
-0.04852377 -0.034830038 -0.13083233 -0.1742903 -0.1949146 0.18278779 -0.1049383 0.114106536
-0.030360078 -0.07125693 0.06678619 0.22778851 -0.008679577 0.047234144 0.047643904 0.10015376
0.14969027 0.056825977 -0.021733183 0.028056609 0.04842605 -0.020199979 -0.05583748 0.13916592
-0.05351403 0.077917695 -0.0426232 -0.12987211 -0.084215686 -0.17398292 0.048588656 -0.11944756
0.013328354 0.062028788 -0.07042349 -0.002476293 -0.024400728 0.11383079 0.08549612 -0.030725783
0.14274485 -0.0053412206 -0.23293462 -0.08090402 -0.022162098 -0.01610075 -0.08740423 -0.05380986
0.16698174 0.005547802 -0.21149679 -0.13308178 -0.18862021 -0.18509185 -0.1433352 -0.027806764
00000000: 29eb b13c 93d2 9dbd 58ae b0bd 1fed a7bd
00000010: beee 8d3d 3d4e e1bb e81f 5ebc dadd d5bd
00000020: 3504 a73d 0b71 fb3b e27e 053d a930 75bd
00000030: c7fa 05bc aa28 053e acc1 04bd 54e4 603e
00000040: 28f9 cb3d 4cee 483d 55c1 063e dac8 ddbc
00000050: 57a4 803a f69e 3f3d 32f2 0f3e ffba c83d
00000060: 9e99 81bd 5b50 693e e2cf e5bd 0635 033e
00000070: 61e8 923d 6eac bd3d 7d95 71be 17b3 b13b
00000080: 5444 dc3d 018f a03d ac9f 5dbd 9177 573e
00000090: 57f8 e63c 2bb5 47be 7e75 e3bd de00 843d
000000a0: f2cf e93d 7213 3f3e 8ded 51bd 9521 cebc
000000b0: 1c6f efbd d293 653e 3c38 bebd f104 91bd
000000c0: b78f 773d 7a63 c0bd efd2 89bc 435c 563d
000000d0: d873 8b3e f3d8 17be ef6c 8fbd 84a9 c4bc
000000e0: 61e7 003e cdbb 033e 6d72 e73d c026 1c3e
000000f0: b35c 453e 751d 9e3d 5048 fabd fb24 71bc
00000100: 6492 c23d 69e4 6fbd de18 97bd d733 ba3c
00000110: 7f2a 0cbe d7e1 17be f4a3 8ebe 8891 e8bd
00000120: 05cb fe3d 38dc 9c3b 0d1c 443e 1416 efbd
00000130: f183 73bd 2efb 08be a887 4ebd 51ed df3d
00000140: 1fff 35bd 9189 543d 8a46 e4bd 5a69 513e
00000150: 1682 183d 638c a73d 1a2c 193e 66c9 61bd
00000160: bccb a83c 7982 2d3e 749e c9bd b3f2 3b3d
00000170: 13bc d1bd f47c 9c3e 8e59 40be 527c 6abc
00000180: 2719 6d3e 1b0d adbd 3d26 003e 8898 813e
00000190: 5868 ef3d 5338 59be 4d7e cbbc 04aa edbd
000001a0: 1346 663d 8eac 7cbd d4f0 1b3e 608e c53d
000001b0: b772 acbd a5e3 2ebe 6684 333d a317 47bc
000001c0: fdf5 223e 0155 3c3b cae1 6c3c d1bc ab3c
000001d0: 2dac 08bc d8f5 5cbd 1079 2cbe 1d7a fa3d
000001e0: 9f46 bebd 8280 243e 489b 7fba 774f 0a3e
000001f0: 1e38 233e e127 18bd eb65 e73d df87 e63b
00000200: 304c e4bc 489f 193d cfb1 2d3b 49e9 573e
00000210: 9126 3bbe 4803 033e af58 883c 8d33 5e3e
00000220: 0985 143e baba e5bd 8548 0c3e 7c3f 5d3e
00000230: e6a5 2abe e9d0 48bd c30f 8f3d ece3 653e
00000240: 5afd 133e 83ed be3d 04bb bfbd 89b2 573d
00000250: 62bc 8abd 2921 223b 1523 7e3c 8671 13be
00000260: 69ec 113d ad32 09be 6a8c cebd 6bcc 823e
00000270: 765b 92bd 22c9 bc3c fadd d1bd 58c2 c43c
00000280: c1b2 a03d 8c77 d63d 2294 8fbd 8094 3e3e
00000290: d494 443e fe6b ca3d a046 15be 0246 80bd
000002a0: fe85 0dbe e09f 603d db13 f5bb 6df3 093d
000002b0: c1c3 343e f5c7 f43d 6820 1fbe 373f d0bd
000002c0: ca80 0e3e de5a 293d cd0e 30bb eb75 01be
000002d0: ffdc 0fbd 31fb 59ba adee 19be cb12 0a3e
000002e0: 5a4c 473e d320 93bd d991 a3bd c3b8 49bd
000002f0: ab62 fe3a 4f90 b5bd a4b4 033e 0600 95bd
00000300: 828d ebbb 1107 12be 6f2d c33b c5b0 23bb
00000310: 2fa4 9dbc 4ee4 173e ee5d 50be f351 ca3d
00000320: dcc0 46bd f1a9 0ebd e9f8 05be 2879 32be
00000330: b197 47be b92c 3b3e e4e9 d6bd b0b0 e93d
00000340: b3b5 f8bc 27ef 91bd 33c7 883d 6441 693e
00000350: c934 0ebc 9778 413d 4126 433d 6a1d cd3d
00000360: 6848 193e 5bc2 683d ca09 b2bc f9d6 e53c
00000370: 655a 463d 6d7a a5bc d7b5 64bd 8381 0e3e
00000380: 8731 5bbd 5093 9f3d aa95 2ebd 32fd 04be
00000390: 4679 acbd 9428 32be e604 473d eca0 f4bd
000003a0: 2b5f 5a3c e611 7e3d 313a 90bd 4d49 22bb
000003b0: 09e4 c7bc 1e20 e93d 9718 af3d a3b4 fbbc
000003c0: b52b 123e 6805 afbb 6a86 6ebe 02b1 a5bd
000003d0: 4a8d b5bc b8e5 83bc fd00 b3bd ba67 5cbd
000003e0: 43fd 2a3e 56ca b53b 9d92 58be 9746 08be
000003f0: a825 41be b888 3dbe 76c6 12be 03cb e3bc

onnx::LSTM_326 f4 [1, 128, 32]
-0.111333504 -0.29363427 -0.29339892 -0.19912682 0.21364546 -0.13516364 0.16539116 -0.00040039254
-0.143639 -0.008392984 -0.02013615 -0.033808783 -0.07880006 -0.21514907 0.06981487 0.18489622
-0.025392482 0.19148758 0.18007709 0.11702642 0.111284815 -0.2432596 0.16091868 -0.05825626
-0.16373509 0.01428 0.20949389 -0.05036815 0.045492865 0.13788639 0.15289524 -0.23682158
-0.005757324 -0.05331228 -0.07730549 0.045669306 0.061228797 0.014548978 0.17543025 -0.06250982
-0.045150463 -0.17809722 -0.011314657 -0.0013205218 0.06257809 0.11946099 -0.20572788 -0.051775787
0.08590708 -0.049347024 0.118453465 0.17525083 -0.003642587 -0.20690681 0.10341632 0.019064553
0.09132624 0.07152387 0.13097438 -0.20992956 -0.0115300715 0.053476647 0.10241545 -0.16774566
-0.070924796 -0.1824311 -0.18959466 -0.012229291 0.043514617 0.059245728 0.065262206 -0.048379164
-0.013186636 0.021654096 -0.13848159 0.13452193 0.019314745 0.070049755 -0.16977772 0.16240211
-0.19901183 0.10749792 0.116005145 -0.006095964 0.12268812 -0.2322637 -0.014943788 -0.1249935
-0.16627736 0.020850226 0.19345254 -0.07263818 0.12336538 -0.12970681 0.057826124 0.082964025
0.08440152 -0.15192793 -0.27676746 -0.15977864 0.2344184 0.06675055 0.2708409 -0.22516671
-0.069867805 0.01192555 -0.021644501 -0.01467592 0.09462198 -0.16307262 -0.20379606 0.12427391
-0.08895128 -0.06370758 -0.051954713 -0.06864805 0.14550394 0.0020616108 -0.08416979 -0.15116106
0.10215851 0.002829173 -0.058524903 -0.14329416 -0.18586557 -0.027889693 0.060592372 -0.07655908
0.016078603 0.12494973 0.06380151 0.07422493 0.17653038 0.025790894 0.14766106 0.16063988
-0.0815392 -0.020364108 -0.039524633 -0.081842765 0.053529255 -0.07985475 -0.17754108 -0.051078565
-0.1467844 0.11422664 0.01935095 -0.15536605 0.062574945 -0.16644822 0.12445319 0.12899068
-0.099862166 -0.031589482 0.18815187 -0.13679072 -0.09617942 -0.13802287 0.17762539 0.033365898
-0.13831472 -0.0010338437 0.06314034 -0.0491231 -0.050579917 -0.009535083 0.24749081 0.044770285
-0.09837823 0.04334082 -0.15616082 0.14568463 0.04847119 -0.027620824 -0.22419018 0.09000877
0.0192239 0.14885488 -0.080438286 -0.069202594 0.07372892 -0.12609875 0.004921634 -0.17339623
-0.011236232 0.15959185 0.034878876 0.049161095 -0.04737917 0.066294596 -0.01293483 -0.14969312
-0.079324156 -0.08381112 0.01066495 -0.15917212 -0.036782652 -0.13433418 0.014441767 -0.0021762815
0.11745197 -0.21652463 -0.08316511 0.15427189 -0.11418992 0.12172582 -0.044637974 -0.1432248
0.011750291 -0.08497791 0.03750075 -0.21042885 0.19022548 -0.13449451 0.15248173 -0.1718267
-0.15978345 0.112581275 0.12672423 -0.075155884 -0.13907151 0.046806738 -0.09857947 -0.04603164
-0.0016720232 0.07453374 0.12586573 -0.12737527 0.18849145 0.13955615 0.07083992 -0.19713098
-0.12902886 0.04546225 0.10383463 0.1358131 -0.04935433 -0.14327708 -0.18538406 -0.056148298
-0.041329306 0.066691115 0.12455838 -0.13787785 0.13482283 0.09966979 -0.1589896 -0.13885535
-0.079053864 0.072860055 0.19062778 -0.00056430727 0.097322024 0.16621648 0.10927974 -0.20298307
00000000: d202 e4bd 3b57 96be 6238 96be e7e7 4bbe
00000010: e0c5 5a3e 5668 0abe 4d5c 293e c7eb d1b9
00000020: 1a16 13be ba82 09bc 91f4 a4bc 147b 0abd
00000030: ed61 a1bd 0a50 5cbe 19fb 8e3d 6f55 3d3e
00000040: e503 d0bc 5215 443e 2166 383e 8cab ef3d
00000050: 4be9 e33d 0b19 79be dec7 243e 1e9e 6ebd
00000060: 2caa 27be a9f6 693c 9185 563e d54e 4ebd
00000070: ba56 3a3d 1732 0d3e 9290 1c3e 5b81 72be
00000080: efa7 bcbb fa5d 5abd 5752 9ebd bd0f 3b3d
00000090: 0ccb 7a3d d65e 6e3c fda3 333e 2605 80bd
000000a0: b1ef 38bd 1e5f 36be 1c61 39bc 5c15 adba
000000b0: f128 803d f7a7 f43d 54aa 52be d912 54bd
000000c0: 0df0 af3d 1b20 4abd bb97 f23d f474 333e
000000d0: 78b8 6ebb 61df 53be f0cb d33d 442d 9c3c
000000e0: 4009 bb3d 1b7b 923d 261e 063e c6f7 56be
000000f0: a0e8 3cbc 540a 5b3d 31bf d13d 85c5 2bbe
00000100: 0541 91bd 38cf 3abe 1a25 42be 5d5d 48bc
00000110: 623c 323d a6ab 723d 31a8 853d 3b29 46bd
00000120: c30c 58bc ee63 b13c 1ece 0dbe 1ec0 093e
00000130: f539 9e3c 3f76 8f3d 36da 2dbe bd4c 263e
00000140: c2c9 4bbe df27 dc3d 1b94 ed3d a7c0 c7bb
00000150: e943 fb3d 89d6 6dbe cad6 74bc 98fc ffbd
00000160: 9d44 2abe 18ce aa3c 6c18 463e 53c3 94bd
00000170: fda6 fc3d ddd1 04be 16db 6c3d 0be9 a93d
00000180: b4da ac3d ff92 1bbe 77b4 8dbe 039d 23be
00000190: 610b 703e 83b4 883d a9ab 8a3e 1a92 66be
000001a0: da16 8fbd 6263 433c cf4f b1bc 4573 70bc
000001b0: 2bc9 c13d 82fc 26be eaaf 50be 5283 fe3d
000001c0: 172c b6bd 1f79 82bd 77ce 54bd 5997 8cbd
000001d0: fcfe 143e 171c 073b 3661 acbd f7c9 1abe
000001e0: 7b38 d13d a669 393b cfb7 6fbd b4bb 12be
000001f0: 8b53 3ebe ed78 e4bc b52f 783d 02cb 9cbd
00000200: 46b7 833c a5e5 ff3d 5eaa 823d 3d03 983d
00000210: 61c4 343e 6d47 d33c 7634 173e c87e 243e
00000220: 06fe a6bd a1d2 a6bc 95e4 21bd 2e9d a7bd
00000230: 7e41 5b3d e38a a3bd 54cd 35be c237 51bd
00000240: a64e 16be a8ef e93d e285 9e3c 4718 1fbe
00000250: 4b27 803d 6771 2abe 50e1 fe3d 2216 043e
00000260: 8984 ccbd f963 01bd e2aa 403e de12 0cbe
00000270: b7f9 c4bd de55 0dbe 6ee3 353e aeaa 083d
00000280: 60a2 0dbe 0a82 87ba b94f 813d 4e35 49bd
00000290: e32c 4fbd 0939 1cbc 3b6e 7d3e 0c61 373d
000002a0: 877a c9bd 2586 313d 9fe8 1fbe 5a2e 153e
000002b0: ba89 463d 1145 e2bc 1c92 65be 8556 b83d
000002c0: 717b 9d3c 6a6d 183e d4bc a4bd 17ba 8dbd
000002d0: 30ff 963d 0820 01be a945 a13b c88e 31be
000002e0: 2c18 38bc 0c6c 233e 27dd 0e3d 255d 493d
000002f0: a910 42bd 76c5 873d 9cec 53bc 2749 19be
00000300: b474 a2bd 2aa5 abbd 0bbc 2e3c 04fe 22be
00000310: 68a9 16bd e68e 09be 299d 6c3c f29f 0ebb
00000320: a98a f03d a2b8 5dbe 7852 aabd 73f9 1d3e
00000330: 68dc e9bd 634b f93d 4fd6 36bd 86a9 12be
00000340: 4b84 403c e608 aebd 639a 193d a97a 57be
00000350: 78ca 423e eeb8 09be 2c24 1c3e 57f3 2fbe
00000360: 469e 23be 0391 e63d ffc3 013e 54eb 99bd
00000370: c368 0ebe 6cb8 3f3d 08e4 c9bd ac8b 3cbd
00000380: ca27 dbba 25a5 983d f2e2 003e aa6e 02be
00000390: e703 413e cfe7 0e3e 8514 913d b4dc 49be
000003a0: 2420 04be a036 3a3d 40a7 d43d 9712 0b3e
000003b0: c427 4abd 3ab7 12be 52d5 3dbe c2fb 65bd
000003c0: eb48 29bd 5a95 883d 7718 ff3d da2f 0dbe
000003d0: ff0e 0a3e ad1f cc3d 2bce 22be 1930 0ebe
000003e0: fee6 a1bd a737 953d ee33 433e 05ee 13ba
000003f0: c550 c73d a734 2a3e 0ece df3d cbda 4fbe
